ir_version: 6
producer_name: "pytorch"
producer_version: "1.5"
model_version: 0
graph {
  name: "torch-jit-export"
  node {
    input: "input.1"
    input: "stage1.rebnconvin.conv_s1.weight"
    input: "stage1.rebnconvin.conv_s1.bias"
    output: "799"
    name: "Conv_0"
    op_type: "Conv"
    attribute {
      name: "dilations"
      ints: 1
      ints: 1
      type: INTS
    }
    attribute {
      name: "group"
      i: 1
      type: INT
    }
    attribute {
      name: "kernel_shape"
      ints: 3
      ints: 3
      type: INTS
    }
    attribute {
      name: "pads"
      ints: 1
      ints: 1
      ints: 1
      ints: 1
      type: INTS
    }
    attribute {
      name: "strides"
      ints: 1
      ints: 1
      type: INTS
    }
  }
  node {
    input: "799"
    input: "stage1.rebnconvin.bn_s1.weight"
    input: "stage1.rebnconvin.bn_s1.bias"
    input: "stage1.rebnconvin.bn_s1.running_mean"
    input: "stage1.rebnconvin.bn_s1.running_var"
    output: "800"
    name: "BatchNormalization_1"
    op_type: "BatchNormalization"
    attribute {
      name: "epsilon"
      f: 9.999999747378752e-06
      type: FLOAT
    }
    attribute {
      name: "momentum"
      f: 0.8999999761581421
      type: FLOAT
    }
  }
  node {
    input: "800"
    output: "801"
    name: "Relu_2"
    op_type: "Relu"
  }
  node {
    input: "801"
    input: "stage1.rebnconv1.conv_s1.weight"
    input: "stage1.rebnconv1.conv_s1.bias"
    output: "802"
    name: "Conv_3"
    op_type: "Conv"
    attribute {
      name: "dilations"
      ints: 1
      ints: 1
      type: INTS
    }
    attribute {
      name: "group"
      i: 1
      type: INT
    }
    attribute {
      name: "kernel_shape"
      ints: 3
      ints: 3
      type: INTS
    }
    attribute {
      name: "pads"
      ints: 1
      ints: 1
      ints: 1
      ints: 1
      type: INTS
    }
    attribute {
      name: "strides"
      ints: 1
      ints: 1
      type: INTS
    }
  }
  node {
    input: "802"
    input: "stage1.rebnconv1.bn_s1.weight"
    input: "stage1.rebnconv1.bn_s1.bias"
    input: "stage1.rebnconv1.bn_s1.running_mean"
    input: "stage1.rebnconv1.bn_s1.running_var"
    output: "803"
    name: "BatchNormalization_4"
    op_type: "BatchNormalization"
    attribute {
      name: "epsilon"
      f: 9.999999747378752e-06
      type: FLOAT
    }
    attribute {
      name: "momentum"
      f: 0.8999999761581421
      type: FLOAT
    }
  }
  node {
    input: "803"
    output: "804"
    name: "Relu_5"
    op_type: "Relu"
  }
  node {
    input: "804"
    output: "805"
    name: "MaxPool_6"
    op_type: "MaxPool"
    attribute {
      name: "ceil_mode"
      i: 1
      type: INT
    }
    attribute {
      name: "kernel_shape"
      ints: 2
      ints: 2
      type: INTS
    }
    attribute {
      name: "pads"
      ints: 0
      ints: 0
      ints: 0
      ints: 0
      type: INTS
    }
    attribute {
      name: "strides"
      ints: 2
      ints: 2
      type: INTS
    }
  }
  node {
    input: "805"
    input: "stage1.rebnconv2.conv_s1.weight"
    input: "stage1.rebnconv2.conv_s1.bias"
    output: "806"
    name: "Conv_7"
    op_type: "Conv"
    attribute {
      name: "dilations"
      ints: 1
      ints: 1
      type: INTS
    }
    attribute {
      name: "group"
      i: 1
      type: INT
    }
    attribute {
      name: "kernel_shape"
      ints: 3
      ints: 3
      type: INTS
    }
    attribute {
      name: "pads"
      ints: 1
      ints: 1
      ints: 1
      ints: 1
      type: INTS
    }
    attribute {
      name: "strides"
      ints: 1
      ints: 1
      type: INTS
    }
  }
  node {
    input: "806"
    input: "stage1.rebnconv2.bn_s1.weight"
    input: "stage1.rebnconv2.bn_s1.bias"
    input: "stage1.rebnconv2.bn_s1.running_mean"
    input: "stage1.rebnconv2.bn_s1.running_var"
    output: "807"
    name: "BatchNormalization_8"
    op_type: "BatchNormalization"
    attribute {
      name: "epsilon"
      f: 9.999999747378752e-06
      type: FLOAT
    }
    attribute {
      name: "momentum"
      f: 0.8999999761581421
      type: FLOAT
    }
  }
  node {
    input: "807"
    output: "808"
    name: "Relu_9"
    op_type: "Relu"
  }
  node {
    input: "808"
    output: "809"
    name: "MaxPool_10"
    op_type: "MaxPool"
    attribute {
      name: "ceil_mode"
      i: 1
      type: INT
    }
    attribute {
      name: "kernel_shape"
      ints: 2
      ints: 2
      type: INTS
    }
    attribute {
      name: "pads"
      ints: 0
      ints: 0
      ints: 0
      ints: 0
      type: INTS
    }
    attribute {
      name: "strides"
      ints: 2
      ints: 2
      type: INTS
    }
  }
  node {
    input: "809"
    input: "stage1.rebnconv3.conv_s1.weight"
    input: "stage1.rebnconv3.conv_s1.bias"
    output: "810"
    name: "Conv_11"
    op_type: "Conv"
    attribute {
      name: "dilations"
      ints: 1
      ints: 1
      type: INTS
    }
    attribute {
      name: "group"
      i: 1
      type: INT
    }
    attribute {
      name: "kernel_shape"
      ints: 3
      ints: 3
      type: INTS
    }
    attribute {
      name: "pads"
      ints: 1
      ints: 1
      ints: 1
      ints: 1
      type: INTS
    }
    attribute {
      name: "strides"
      ints: 1
      ints: 1
      type: INTS
    }
  }
  node {
    input: "810"
    input: "stage1.rebnconv3.bn_s1.weight"
    input: "stage1.rebnconv3.bn_s1.bias"
    input: "stage1.rebnconv3.bn_s1.running_mean"
    input: "stage1.rebnconv3.bn_s1.running_var"
    output: "811"
    name: "BatchNormalization_12"
    op_type: "BatchNormalization"
    attribute {
      name: "epsilon"
      f: 9.999999747378752e-06
      type: FLOAT
    }
    attribute {
      name: "momentum"
      f: 0.8999999761581421
      type: FLOAT
    }
  }
  node {
    input: "811"
    output: "812"
    name: "Relu_13"
    op_type: "Relu"
  }
  node {
    input: "812"
    output: "813"
    name: "MaxPool_14"
    op_type: "MaxPool"
    attribute {
      name: "ceil_mode"
      i: 1
      type: INT
    }
    attribute {
      name: "kernel_shape"
      ints: 2
      ints: 2
      type: INTS
    }
    attribute {
      name: "pads"
      ints: 0
      ints: 0
      ints: 0
      ints: 0
      type: INTS
    }
    attribute {
      name: "strides"
      ints: 2
      ints: 2
      type: INTS
    }
  }
  node {
    input: "813"
    input: "stage1.rebnconv4.conv_s1.weight"
    input: "stage1.rebnconv4.conv_s1.bias"
    output: "814"
    name: "Conv_15"
    op_type: "Conv"
    attribute {
      name: "dilations"
      ints: 1
      ints: 1
      type: INTS
    }
    attribute {
      name: "group"
      i: 1
      type: INT
    }
    attribute {
      name: "kernel_shape"
      ints: 3
      ints: 3
      type: INTS
    }
    attribute {
      name: "pads"
      ints: 1
      ints: 1
      ints: 1
      ints: 1
      type: INTS
    }
    attribute {
      name: "strides"
      ints: 1
      ints: 1
      type: INTS
    }
  }
  node {
    input: "814"
    input: "stage1.rebnconv4.bn_s1.weight"
    input: "stage1.rebnconv4.bn_s1.bias"
    input: "stage1.rebnconv4.bn_s1.running_mean"
    input: "stage1.rebnconv4.bn_s1.running_var"
    output: "815"
    name: "BatchNormalization_16"
    op_type: "BatchNormalization"
    attribute {
      name: "epsilon"
      f: 9.999999747378752e-06
      type: FLOAT
    }
    attribute {
      name: "momentum"
      f: 0.8999999761581421
      type: FLOAT
    }
  }
  node {
    input: "815"
    output: "816"
    name: "Relu_17"
    op_type: "Relu"
  }
  node {
    input: "816"
    output: "817"
    name: "MaxPool_18"
    op_type: "MaxPool"
    attribute {
      name: "ceil_mode"
      i: 1
      type: INT
    }
    attribute {
      name: "kernel_shape"
      ints: 2
      ints: 2
      type: INTS
    }
    attribute {
      name: "pads"
      ints: 0
      ints: 0
      ints: 0
      ints: 0
      type: INTS
    }
    attribute {
      name: "strides"
      ints: 2
      ints: 2
      type: INTS
    }
  }
  node {
    input: "817"
    input: "stage1.rebnconv5.conv_s1.weight"
    input: "stage1.rebnconv5.conv_s1.bias"
    output: "818"
    name: "Conv_19"
    op_type: "Conv"
    attribute {
      name: "dilations"
      ints: 1
      ints: 1
      type: INTS
    }
    attribute {
      name: "group"
      i: 1
      type: INT
    }
    attribute {
      name: "kernel_shape"
      ints: 3
      ints: 3
      type: INTS
    }
    attribute {
      name: "pads"
      ints: 1
      ints: 1
      ints: 1
      ints: 1
      type: INTS
    }
    attribute {
      name: "strides"
      ints: 1
      ints: 1
      type: INTS
    }
  }
  node {
    input: "818"
    input: "stage1.rebnconv5.bn_s1.weight"
    input: "stage1.rebnconv5.bn_s1.bias"
    input: "stage1.rebnconv5.bn_s1.running_mean"
    input: "stage1.rebnconv5.bn_s1.running_var"
    output: "819"
    name: "BatchNormalization_20"
    op_type: "BatchNormalization"
    attribute {
      name: "epsilon"
      f: 9.999999747378752e-06
      type: FLOAT
    }
    attribute {
      name: "momentum"
      f: 0.8999999761581421
      type: FLOAT
    }
  }
  node {
    input: "819"
    output: "820"
    name: "Relu_21"
    op_type: "Relu"
  }
  node {
    input: "820"
    output: "821"
    name: "MaxPool_22"
    op_type: "MaxPool"
    attribute {
      name: "ceil_mode"
      i: 1
      type: INT
    }
    attribute {
      name: "kernel_shape"
      ints: 2
      ints: 2
      type: INTS
    }
    attribute {
      name: "pads"
      ints: 0
      ints: 0
      ints: 0
      ints: 0
      type: INTS
    }
    attribute {
      name: "strides"
      ints: 2
      ints: 2
      type: INTS
    }
  }
  node {
    input: "821"
    input: "stage1.rebnconv6.conv_s1.weight"
    input: "stage1.rebnconv6.conv_s1.bias"
    output: "822"
    name: "Conv_23"
    op_type: "Conv"
    attribute {
      name: "dilations"
      ints: 1
      ints: 1
      type: INTS
    }
    attribute {
      name: "group"
      i: 1
      type: INT
    }
    attribute {
      name: "kernel_shape"
      ints: 3
      ints: 3
      type: INTS
    }
    attribute {
      name: "pads"
      ints: 1
      ints: 1
      ints: 1
      ints: 1
      type: INTS
    }
    attribute {
      name: "strides"
      ints: 1
      ints: 1
      type: INTS
    }
  }
  node {
    input: "822"
    input: "stage1.rebnconv6.bn_s1.weight"
    input: "stage1.rebnconv6.bn_s1.bias"
    input: "stage1.rebnconv6.bn_s1.running_mean"
    input: "stage1.rebnconv6.bn_s1.running_var"
    output: "823"
    name: "BatchNormalization_24"
    op_type: "BatchNormalization"
    attribute {
      name: "epsilon"
      f: 9.999999747378752e-06
      type: FLOAT
    }
    attribute {
      name: "momentum"
      f: 0.8999999761581421
      type: FLOAT
    }
  }
  node {
    input: "823"
    output: "824"
    name: "Relu_25"
    op_type: "Relu"
  }
  node {
    input: "824"
    input: "stage1.rebnconv7.conv_s1.weight"
    input: "stage1.rebnconv7.conv_s1.bias"
    output: "825"
    name: "Conv_26"
    op_type: "Conv"
    attribute {
      name: "dilations"
      ints: 2
      ints: 2
      type: INTS
    }
    attribute {
      name: "group"
      i: 1
      type: INT
    }
    attribute {
      name: "kernel_shape"
      ints: 3
      ints: 3
      type: INTS
    }
    attribute {
      name: "pads"
      ints: 2
      ints: 2
      ints: 2
      ints: 2
      type: INTS
    }
    attribute {
      name: "strides"
      ints: 1
      ints: 1
      type: INTS
    }
  }
  node {
    input: "825"
    input: "stage1.rebnconv7.bn_s1.weight"
    input: "stage1.rebnconv7.bn_s1.bias"
    input: "stage1.rebnconv7.bn_s1.running_mean"
    input: "stage1.rebnconv7.bn_s1.running_var"
    output: "826"
    name: "BatchNormalization_27"
    op_type: "BatchNormalization"
    attribute {
      name: "epsilon"
      f: 9.999999747378752e-06
      type: FLOAT
    }
    attribute {
      name: "momentum"
      f: 0.8999999761581421
      type: FLOAT
    }
  }
  node {
    input: "826"
    output: "827"
    name: "Relu_28"
    op_type: "Relu"
  }
  node {
    input: "827"
    input: "824"
    output: "828"
    name: "Concat_29"
    op_type: "Concat"
    attribute {
      name: "axis"
      i: 1
      type: INT
    }
  }
  node {
    input: "828"
    input: "stage1.rebnconv6d.conv_s1.weight"
    input: "stage1.rebnconv6d.conv_s1.bias"
    output: "829"
    name: "Conv_30"
    op_type: "Conv"
    attribute {
      name: "dilations"
      ints: 1
      ints: 1
      type: INTS
    }
    attribute {
      name: "group"
      i: 1
      type: INT
    }
    attribute {
      name: "kernel_shape"
      ints: 3
      ints: 3
      type: INTS
    }
    attribute {
      name: "pads"
      ints: 1
      ints: 1
      ints: 1
      ints: 1
      type: INTS
    }
    attribute {
      name: "strides"
      ints: 1
      ints: 1
      type: INTS
    }
  }
  node {
    input: "829"
    input: "stage1.rebnconv6d.bn_s1.weight"
    input: "stage1.rebnconv6d.bn_s1.bias"
    input: "stage1.rebnconv6d.bn_s1.running_mean"
    input: "stage1.rebnconv6d.bn_s1.running_var"
    output: "830"
    name: "BatchNormalization_31"
    op_type: "BatchNormalization"
    attribute {
      name: "epsilon"
      f: 9.999999747378752e-06
      type: FLOAT
    }
    attribute {
      name: "momentum"
      f: 0.8999999761581421
      type: FLOAT
    }
  }
  node {
    input: "830"
    output: "831"
    name: "Relu_32"
    op_type: "Relu"
  }
  node {
    input: "820"
    output: "832"
    name: "Shape_33"
    op_type: "Shape"
  }
  node {
    output: "833"
    name: "Constant_34"
    op_type: "Constant"
    attribute {
      name: "value"
      t {
        data_type: 7
      }
      type: TENSOR
    }
  }
  node {
    input: "832"
    input: "833"
    output: "834"
    name: "Gather_35"
    op_type: "Gather"
    attribute {
      name: "axis"
      i: 0
      type: INT
    }
  }
  node {
    input: "820"
    output: "835"
    name: "Shape_36"
    op_type: "Shape"
  }
  node {
    output: "836"
    name: "Constant_37"
    op_type: "Constant"
    attribute {
      name: "value"
      t {
        data_type: 7
      }
      type: TENSOR
    }
  }
  node {
    input: "835"
    input: "836"
    output: "837"
    name: "Gather_38"
    op_type: "Gather"
    attribute {
      name: "axis"
      i: 0
      type: INT
    }
  }
  node {
    input: "834"
    output: "838"
    name: "Unsqueeze_39"
    op_type: "Unsqueeze"
    attribute {
      name: "axes"
      ints: 0
      type: INTS
    }
  }
  node {
    input: "837"
    output: "839"
    name: "Unsqueeze_40"
    op_type: "Unsqueeze"
    attribute {
      name: "axes"
      ints: 0
      type: INTS
    }
  }
  node {
    input: "838"
    input: "839"
    output: "840"
    name: "Concat_41"
    op_type: "Concat"
    attribute {
      name: "axis"
      i: 0
      type: INT
    }
  }
  node {
    output: "841"
    name: "Constant_42"
    op_type: "Constant"
    attribute {
      name: "value"
      t {
        dims: 2
        data_type: 1
      }
      type: TENSOR
    }
  }
  node {
    input: "840"
    output: "842"
    name: "Cast_43"
    op_type: "Cast"
    attribute {
      name: "to"
      i: 1
      type: INT
    }
  }
  node {
    input: "831"
    output: "843"
    name: "Shape_44"
    op_type: "Shape"
  }
  node {
    output: "844"
    name: "Constant_45"
    op_type: "Constant"
    attribute {
      name: "value"
      t {
        dims: 1
        data_type: 7
      }
      type: TENSOR
    }
  }
  node {
    output: "845"
    name: "Constant_46"
    op_type: "Constant"
    attribute {
      name: "value"
      t {
        dims: 1
        data_type: 7
      }
      type: TENSOR
    }
  }
  node {
    output: "846"
    name: "Constant_47"
    op_type: "Constant"
    attribute {
      name: "value"
      t {
        dims: 1
        data_type: 7
      }
      type: TENSOR
    }
  }
  node {
    input: "843"
    input: "845"
    input: "846"
    input: "844"
    output: "847"
    name: "Slice_48"
    op_type: "Slice"
  }
  node {
    input: "847"
    output: "848"
    name: "Cast_49"
    op_type: "Cast"
    attribute {
      name: "to"
      i: 1
      type: INT
    }
  }
  node {
    input: "842"
    input: "848"
    output: "849"
    name: "Div_50"
    op_type: "Div"
  }
  node {
    input: "841"
    input: "849"
    output: "850"
    name: "Concat_51"
    op_type: "Concat"
    attribute {
      name: "axis"
      i: 0
      type: INT
    }
  }
  node {
    input: "831"
    input: "850"
    output: "851"
    name: "Resize_52"
    op_type: "Resize"
    attribute {
      name: "mode"
      s: "linear"
      type: STRING
    }
  }
  node {
    input: "851"
    input: "820"
    output: "852"
    name: "Concat_53"
    op_type: "Concat"
    attribute {
      name: "axis"
      i: 1
      type: INT
    }
  }
  node {
    input: "852"
    input: "stage1.rebnconv5d.conv_s1.weight"
    input: "stage1.rebnconv5d.conv_s1.bias"
    output: "853"
    name: "Conv_54"
    op_type: "Conv"
    attribute {
      name: "dilations"
      ints: 1
      ints: 1
      type: INTS
    }
    attribute {
      name: "group"
      i: 1
      type: INT
    }
    attribute {
      name: "kernel_shape"
      ints: 3
      ints: 3
      type: INTS
    }
    attribute {
      name: "pads"
      ints: 1
      ints: 1
      ints: 1
      ints: 1
      type: INTS
    }
    attribute {
      name: "strides"
      ints: 1
      ints: 1
      type: INTS
    }
  }
  node {
    input: "853"
    input: "stage1.rebnconv5d.bn_s1.weight"
    input: "stage1.rebnconv5d.bn_s1.bias"
    input: "stage1.rebnconv5d.bn_s1.running_mean"
    input: "stage1.rebnconv5d.bn_s1.running_var"
    output: "854"
    name: "BatchNormalization_55"
    op_type: "BatchNormalization"
    attribute {
      name: "epsilon"
      f: 9.999999747378752e-06
      type: FLOAT
    }
    attribute {
      name: "momentum"
      f: 0.8999999761581421
      type: FLOAT
    }
  }
  node {
    input: "854"
    output: "855"
    name: "Relu_56"
    op_type: "Relu"
  }
  node {
    input: "816"
    output: "856"
    name: "Shape_57"
    op_type: "Shape"
  }
  node {
    output: "857"
    name: "Constant_58"
    op_type: "Constant"
    attribute {
      name: "value"
      t {
        data_type: 7
      }
      type: TENSOR
    }
  }
  node {
    input: "856"
    input: "857"
    output: "858"
    name: "Gather_59"
    op_type: "Gather"
    attribute {
      name: "axis"
      i: 0
      type: INT
    }
  }
  node {
    input: "816"
    output: "859"
    name: "Shape_60"
    op_type: "Shape"
  }
  node {
    output: "860"
    name: "Constant_61"
    op_type: "Constant"
    attribute {
      name: "value"
      t {
        data_type: 7
      }
      type: TENSOR
    }
  }
  node {
    input: "859"
    input: "860"
    output: "861"
    name: "Gather_62"
    op_type: "Gather"
    attribute {
      name: "axis"
      i: 0
      type: INT
    }
  }
  node {
    input: "858"
    output: "862"
    name: "Unsqueeze_63"
    op_type: "Unsqueeze"
    attribute {
      name: "axes"
      ints: 0
      type: INTS
    }
  }
  node {
    input: "861"
    output: "863"
    name: "Unsqueeze_64"
    op_type: "Unsqueeze"
    attribute {
      name: "axes"
      ints: 0
      type: INTS
    }
  }
  node {
    input: "862"
    input: "863"
    output: "864"
    name: "Concat_65"
    op_type: "Concat"
    attribute {
      name: "axis"
      i: 0
      type: INT
    }
  }
  node {
    output: "865"
    name: "Constant_66"
    op_type: "Constant"
    attribute {
      name: "value"
      t {
        dims: 2
        data_type: 1
      }
      type: TENSOR
    }
  }
  node {
    input: "864"
    output: "866"
    name: "Cast_67"
    op_type: "Cast"
    attribute {
      name: "to"
      i: 1
      type: INT
    }
  }
  node {
    input: "855"
    output: "867"
    name: "Shape_68"
    op_type: "Shape"
  }
  node {
    output: "868"
    name: "Constant_69"
    op_type: "Constant"
    attribute {
      name: "value"
      t {
        dims: 1
        data_type: 7
      }
      type: TENSOR
    }
  }
  node {
    output: "869"
    name: "Constant_70"
    op_type: "Constant"
    attribute {
      name: "value"
      t {
        dims: 1
        data_type: 7
      }
      type: TENSOR
    }
  }
  node {
    output: "870"
    name: "Constant_71"
    op_type: "Constant"
    attribute {
      name: "value"
      t {
        dims: 1
        data_type: 7
      }
      type: TENSOR
    }
  }
  node {
    input: "867"
    input: "869"
    input: "870"
    input: "868"
    output: "871"
    name: "Slice_72"
    op_type: "Slice"
  }
  node {
    input: "871"
    output: "872"
    name: "Cast_73"
    op_type: "Cast"
    attribute {
      name: "to"
      i: 1
      type: INT
    }
  }
  node {
    input: "866"
    input: "872"
    output: "873"
    name: "Div_74"
    op_type: "Div"
  }
  node {
    input: "865"
    input: "873"
    output: "874"
    name: "Concat_75"
    op_type: "Concat"
    attribute {
      name: "axis"
      i: 0
      type: INT
    }
  }
  node {
    input: "855"
    input: "874"
    output: "875"
    name: "Resize_76"
    op_type: "Resize"
    attribute {
      name: "mode"
      s: "linear"
      type: STRING
    }
  }
  node {
    input: "875"
    input: "816"
    output: "876"
    name: "Concat_77"
    op_type: "Concat"
    attribute {
      name: "axis"
      i: 1
      type: INT
    }
  }
  node {
    input: "876"
    input: "stage1.rebnconv4d.conv_s1.weight"
    input: "stage1.rebnconv4d.conv_s1.bias"
    output: "877"
    name: "Conv_78"
    op_type: "Conv"
    attribute {
      name: "dilations"
      ints: 1
      ints: 1
      type: INTS
    }
    attribute {
      name: "group"
      i: 1
      type: INT
    }
    attribute {
      name: "kernel_shape"
      ints: 3
      ints: 3
      type: INTS
    }
    attribute {
      name: "pads"
      ints: 1
      ints: 1
      ints: 1
      ints: 1
      type: INTS
    }
    attribute {
      name: "strides"
      ints: 1
      ints: 1
      type: INTS
    }
  }
  node {
    input: "877"
    input: "stage1.rebnconv4d.bn_s1.weight"
    input: "stage1.rebnconv4d.bn_s1.bias"
    input: "stage1.rebnconv4d.bn_s1.running_mean"
    input: "stage1.rebnconv4d.bn_s1.running_var"
    output: "878"
    name: "BatchNormalization_79"
    op_type: "BatchNormalization"
    attribute {
      name: "epsilon"
      f: 9.999999747378752e-06
      type: FLOAT
    }
    attribute {
      name: "momentum"
      f: 0.8999999761581421
      type: FLOAT
    }
  }
  node {
    input: "878"
    output: "879"
    name: "Relu_80"
    op_type: "Relu"
  }
  node {
    input: "812"
    output: "880"
    name: "Shape_81"
    op_type: "Shape"
  }
  node {
    output: "881"
    name: "Constant_82"
    op_type: "Constant"
    attribute {
      name: "value"
      t {
        data_type: 7
      }
      type: TENSOR
    }
  }
  node {
    input: "880"
    input: "881"
    output: "882"
    name: "Gather_83"
    op_type: "Gather"
    attribute {
      name: "axis"
      i: 0
      type: INT
    }
  }
  node {
    input: "812"
    output: "883"
    name: "Shape_84"
    op_type: "Shape"
  }
  node {
    output: "884"
    name: "Constant_85"
    op_type: "Constant"
    attribute {
      name: "value"
      t {
        data_type: 7
      }
      type: TENSOR
    }
  }
  node {
    input: "883"
    input: "884"
    output: "885"
    name: "Gather_86"
    op_type: "Gather"
    attribute {
      name: "axis"
      i: 0
      type: INT
    }
  }
  node {
    input: "882"
    output: "886"
    name: "Unsqueeze_87"
    op_type: "Unsqueeze"
    attribute {
      name: "axes"
      ints: 0
      type: INTS
    }
  }
  node {
    input: "885"
    output: "887"
    name: "Unsqueeze_88"
    op_type: "Unsqueeze"
    attribute {
      name: "axes"
      ints: 0
      type: INTS
    }
  }
  node {
    input: "886"
    input: "887"
    output: "888"
    name: "Concat_89"
    op_type: "Concat"
    attribute {
      name: "axis"
      i: 0
      type: INT
    }
  }
  node {
    output: "889"
    name: "Constant_90"
    op_type: "Constant"
    attribute {
      name: "value"
      t {
        dims: 2
        data_type: 1
      }
      type: TENSOR
    }
  }
  node {
    input: "888"
    output: "890"
    name: "Cast_91"
    op_type: "Cast"
    attribute {
      name: "to"
      i: 1
      type: INT
    }
  }
  node {
    input: "879"
    output: "891"
    name: "Shape_92"
    op_type: "Shape"
  }
  node {
    output: "892"
    name: "Constant_93"
    op_type: "Constant"
    attribute {
      name: "value"
      t {
        dims: 1
        data_type: 7
      }
      type: TENSOR
    }
  }
  node {
    output: "893"
    name: "Constant_94"
    op_type: "Constant"
    attribute {
      name: "value"
      t {
        dims: 1
        data_type: 7
      }
      type: TENSOR
    }
  }
  node {
    output: "894"
    name: "Constant_95"
    op_type: "Constant"
    attribute {
      name: "value"
      t {
        dims: 1
        data_type: 7
      }
      type: TENSOR
    }
  }
  node {
    input: "891"
    input: "893"
    input: "894"
    input: "892"
    output: "895"
    name: "Slice_96"
    op_type: "Slice"
  }
  node {
    input: "895"
    output: "896"
    name: "Cast_97"
    op_type: "Cast"
    attribute {
      name: "to"
      i: 1
      type: INT
    }
  }
  node {
    input: "890"
    input: "896"
    output: "897"
    name: "Div_98"
    op_type: "Div"
  }
  node {
    input: "889"
    input: "897"
    output: "898"
    name: "Concat_99"
    op_type: "Concat"
    attribute {
      name: "axis"
      i: 0
      type: INT
    }
  }
  node {
    input: "879"
    input: "898"
    output: "899"
    name: "Resize_100"
    op_type: "Resize"
    attribute {
      name: "mode"
      s: "linear"
      type: STRING
    }
  }
  node {
    input: "899"
    input: "812"
    output: "900"
    name: "Concat_101"
    op_type: "Concat"
    attribute {
      name: "axis"
      i: 1
      type: INT
    }
  }
  node {
    input: "900"
    input: "stage1.rebnconv3d.conv_s1.weight"
    input: "stage1.rebnconv3d.conv_s1.bias"
    output: "901"
    name: "Conv_102"
    op_type: "Conv"
    attribute {
      name: "dilations"
      ints: 1
      ints: 1
      type: INTS
    }
    attribute {
      name: "group"
      i: 1
      type: INT
    }
    attribute {
      name: "kernel_shape"
      ints: 3
      ints: 3
      type: INTS
    }
    attribute {
      name: "pads"
      ints: 1
      ints: 1
      ints: 1
      ints: 1
      type: INTS
    }
    attribute {
      name: "strides"
      ints: 1
      ints: 1
      type: INTS
    }
  }
  node {
    input: "901"
    input: "stage1.rebnconv3d.bn_s1.weight"
    input: "stage1.rebnconv3d.bn_s1.bias"
    input: "stage1.rebnconv3d.bn_s1.running_mean"
    input: "stage1.rebnconv3d.bn_s1.running_var"
    output: "902"
    name: "BatchNormalization_103"
    op_type: "BatchNormalization"
    attribute {
      name: "epsilon"
      f: 9.999999747378752e-06
      type: FLOAT
    }
    attribute {
      name: "momentum"
      f: 0.8999999761581421
      type: FLOAT
    }
  }
  node {
    input: "902"
    output: "903"
    name: "Relu_104"
    op_type: "Relu"
  }
  node {
    input: "808"
    output: "904"
    name: "Shape_105"
    op_type: "Shape"
  }
  node {
    output: "905"
    name: "Constant_106"
    op_type: "Constant"
    attribute {
      name: "value"
      t {
        data_type: 7
      }
      type: TENSOR
    }
  }
  node {
    input: "904"
    input: "905"
    output: "906"
    name: "Gather_107"
    op_type: "Gather"
    attribute {
      name: "axis"
      i: 0
      type: INT
    }
  }
  node {
    input: "808"
    output: "907"
    name: "Shape_108"
    op_type: "Shape"
  }
  node {
    output: "908"
    name: "Constant_109"
    op_type: "Constant"
    attribute {
      name: "value"
      t {
        data_type: 7
      }
      type: TENSOR
    }
  }
  node {
    input: "907"
    input: "908"
    output: "909"
    name: "Gather_110"
    op_type: "Gather"
    attribute {
      name: "axis"
      i: 0
      type: INT
    }
  }
  node {
    input: "906"
    output: "910"
    name: "Unsqueeze_111"
    op_type: "Unsqueeze"
    attribute {
      name: "axes"
      ints: 0
      type: INTS
    }
  }
  node {
    input: "909"
    output: "911"
    name: "Unsqueeze_112"
    op_type: "Unsqueeze"
    attribute {
      name: "axes"
      ints: 0
      type: INTS
    }
  }
  node {
    input: "910"
    input: "911"
    output: "912"
    name: "Concat_113"
    op_type: "Concat"
    attribute {
      name: "axis"
      i: 0
      type: INT
    }
  }
  node {
    output: "913"
    name: "Constant_114"
    op_type: "Constant"
    attribute {
      name: "value"
      t {
        dims: 2
        data_type: 1
      }
      type: TENSOR
    }
  }
  node {
    input: "912"
    output: "914"
    name: "Cast_115"
    op_type: "Cast"
    attribute {
      name: "to"
      i: 1
      type: INT
    }
  }
  node {
    input: "903"
    output: "915"
    name: "Shape_116"
    op_type: "Shape"
  }
  node {
    output: "916"
    name: "Constant_117"
    op_type: "Constant"
    attribute {
      name: "value"
      t {
        dims: 1
        data_type: 7
      }
      type: TENSOR
    }
  }
  node {
    output: "917"
    name: "Constant_118"
    op_type: "Constant"
    attribute {
      name: "value"
      t {
        dims: 1
        data_type: 7
      }
      type: TENSOR
    }
  }
  node {
    output: "918"
    name: "Constant_119"
    op_type: "Constant"
    attribute {
      name: "value"
      t {
        dims: 1
        data_type: 7
      }
      type: TENSOR
    }
  }
  node {
    input: "915"
    input: "917"
    input: "918"
    input: "916"
    output: "919"
    name: "Slice_120"
    op_type: "Slice"
  }
  node {
    input: "919"
    output: "920"
    name: "Cast_121"
    op_type: "Cast"
    attribute {
      name: "to"
      i: 1
      type: INT
    }
  }
  node {
    input: "914"
    input: "920"
    output: "921"
    name: "Div_122"
    op_type: "Div"
  }
  node {
    input: "913"
    input: "921"
    output: "922"
    name: "Concat_123"
    op_type: "Concat"
    attribute {
      name: "axis"
      i: 0
      type: INT
    }
  }
  node {
    input: "903"
    input: "922"
    output: "923"
    name: "Resize_124"
    op_type: "Resize"
    attribute {
      name: "mode"
      s: "linear"
      type: STRING
    }
  }
  node {
    input: "923"
    input: "808"
    output: "924"
    name: "Concat_125"
    op_type: "Concat"
    attribute {
      name: "axis"
      i: 1
      type: INT
    }
  }
  node {
    input: "924"
    input: "stage1.rebnconv2d.conv_s1.weight"
    input: "stage1.rebnconv2d.conv_s1.bias"
    output: "925"
    name: "Conv_126"
    op_type: "Conv"
    attribute {
      name: "dilations"
      ints: 1
      ints: 1
      type: INTS
    }
    attribute {
      name: "group"
      i: 1
      type: INT
    }
    attribute {
      name: "kernel_shape"
      ints: 3
      ints: 3
      type: INTS
    }
    attribute {
      name: "pads"
      ints: 1
      ints: 1
      ints: 1
      ints: 1
      type: INTS
    }
    attribute {
      name: "strides"
      ints: 1
      ints: 1
      type: INTS
    }
  }
  node {
    input: "925"
    input: "stage1.rebnconv2d.bn_s1.weight"
    input: "stage1.rebnconv2d.bn_s1.bias"
    input: "stage1.rebnconv2d.bn_s1.running_mean"
    input: "stage1.rebnconv2d.bn_s1.running_var"
    output: "926"
    name: "BatchNormalization_127"
    op_type: "BatchNormalization"
    attribute {
      name: "epsilon"
      f: 9.999999747378752e-06
      type: FLOAT
    }
    attribute {
      name: "momentum"
      f: 0.8999999761581421
      type: FLOAT
    }
  }
  node {
    input: "926"
    output: "927"
    name: "Relu_128"
    op_type: "Relu"
  }
  node {
    input: "804"
    output: "928"
    name: "Shape_129"
    op_type: "Shape"
  }
  node {
    output: "929"
    name: "Constant_130"
    op_type: "Constant"
    attribute {
      name: "value"
      t {
        data_type: 7
      }
      type: TENSOR
    }
  }
  node {
    input: "928"
    input: "929"
    output: "930"
    name: "Gather_131"
    op_type: "Gather"
    attribute {
      name: "axis"
      i: 0
      type: INT
    }
  }
  node {
    input: "804"
    output: "931"
    name: "Shape_132"
    op_type: "Shape"
  }
  node {
    output: "932"
    name: "Constant_133"
    op_type: "Constant"
    attribute {
      name: "value"
      t {
        data_type: 7
      }
      type: TENSOR
    }
  }
  node {
    input: "931"
    input: "932"
    output: "933"
    name: "Gather_134"
    op_type: "Gather"
    attribute {
      name: "axis"
      i: 0
      type: INT
    }
  }
  node {
    input: "930"
    output: "934"
    name: "Unsqueeze_135"
    op_type: "Unsqueeze"
    attribute {
      name: "axes"
      ints: 0
      type: INTS
    }
  }
  node {
    input: "933"
    output: "935"
    name: "Unsqueeze_136"
    op_type: "Unsqueeze"
    attribute {
      name: "axes"
      ints: 0
      type: INTS
    }
  }
  node {
    input: "934"
    input: "935"
    output: "936"
    name: "Concat_137"
    op_type: "Concat"
    attribute {
      name: "axis"
      i: 0
      type: INT
    }
  }
  node {
    output: "937"
    name: "Constant_138"
    op_type: "Constant"
    attribute {
      name: "value"
      t {
        dims: 2
        data_type: 1
      }
      type: TENSOR
    }
  }
  node {
    input: "936"
    output: "938"
    name: "Cast_139"
    op_type: "Cast"
    attribute {
      name: "to"
      i: 1
      type: INT
    }
  }
  node {
    input: "927"
    output: "939"
    name: "Shape_140"
    op_type: "Shape"
  }
  node {
    output: "940"
    name: "Constant_141"
    op_type: "Constant"
    attribute {
      name: "value"
      t {
        dims: 1
        data_type: 7
      }
      type: TENSOR
    }
  }
  node {
    output: "941"
    name: "Constant_142"
    op_type: "Constant"
    attribute {
      name: "value"
      t {
        dims: 1
        data_type: 7
      }
      type: TENSOR
    }
  }
  node {
    output: "942"
    name: "Constant_143"
    op_type: "Constant"
    attribute {
      name: "value"
      t {
        dims: 1
        data_type: 7
      }
      type: TENSOR
    }
  }
  node {
    input: "939"
    input: "941"
    input: "942"
    input: "940"
    output: "943"
    name: "Slice_144"
    op_type: "Slice"
  }
  node {
    input: "943"
    output: "944"
    name: "Cast_145"
    op_type: "Cast"
    attribute {
      name: "to"
      i: 1
      type: INT
    }
  }
  node {
    input: "938"
    input: "944"
    output: "945"
    name: "Div_146"
    op_type: "Div"
  }
  node {
    input: "937"
    input: "945"
    output: "946"
    name: "Concat_147"
    op_type: "Concat"
    attribute {
      name: "axis"
      i: 0
      type: INT
    }
  }
  node {
    input: "927"
    input: "946"
    output: "947"
    name: "Resize_148"
    op_type: "Resize"
    attribute {
      name: "mode"
      s: "linear"
      type: STRING
    }
  }
  node {
    input: "947"
    input: "804"
    output: "948"
    name: "Concat_149"
    op_type: "Concat"
    attribute {
      name: "axis"
      i: 1
      type: INT
    }
  }
  node {
    input: "948"
    input: "stage1.rebnconv1d.conv_s1.weight"
    input: "stage1.rebnconv1d.conv_s1.bias"
    output: "949"
    name: "Conv_150"
    op_type: "Conv"
    attribute {
      name: "dilations"
      ints: 1
      ints: 1
      type: INTS
    }
    attribute {
      name: "group"
      i: 1
      type: INT
    }
    attribute {
      name: "kernel_shape"
      ints: 3
      ints: 3
      type: INTS
    }
    attribute {
      name: "pads"
      ints: 1
      ints: 1
      ints: 1
      ints: 1
      type: INTS
    }
    attribute {
      name: "strides"
      ints: 1
      ints: 1
      type: INTS
    }
  }
  node {
    input: "949"
    input: "stage1.rebnconv1d.bn_s1.weight"
    input: "stage1.rebnconv1d.bn_s1.bias"
    input: "stage1.rebnconv1d.bn_s1.running_mean"
    input: "stage1.rebnconv1d.bn_s1.running_var"
    output: "950"
    name: "BatchNormalization_151"
    op_type: "BatchNormalization"
    attribute {
      name: "epsilon"
      f: 9.999999747378752e-06
      type: FLOAT
    }
    attribute {
      name: "momentum"
      f: 0.8999999761581421
      type: FLOAT
    }
  }
  node {
    input: "950"
    output: "951"
    name: "Relu_152"
    op_type: "Relu"
  }
  node {
    input: "951"
    input: "801"
    output: "952"
    name: "Add_153"
    op_type: "Add"
  }
  node {
    input: "952"
    output: "953"
    name: "MaxPool_154"
    op_type: "MaxPool"
    attribute {
      name: "ceil_mode"
      i: 1
      type: INT
    }
    attribute {
      name: "kernel_shape"
      ints: 2
      ints: 2
      type: INTS
    }
    attribute {
      name: "pads"
      ints: 0
      ints: 0
      ints: 0
      ints: 0
      type: INTS
    }
    attribute {
      name: "strides"
      ints: 2
      ints: 2
      type: INTS
    }
  }
  node {
    input: "953"
    input: "stage2.rebnconvin.conv_s1.weight"
    input: "stage2.rebnconvin.conv_s1.bias"
    output: "954"
    name: "Conv_155"
    op_type: "Conv"
    attribute {
      name: "dilations"
      ints: 1
      ints: 1
      type: INTS
    }
    attribute {
      name: "group"
      i: 1
      type: INT
    }
    attribute {
      name: "kernel_shape"
      ints: 3
      ints: 3
      type: INTS
    }
    attribute {
      name: "pads"
      ints: 1
      ints: 1
      ints: 1
      ints: 1
      type: INTS
    }
    attribute {
      name: "strides"
      ints: 1
      ints: 1
      type: INTS
    }
  }
  node {
    input: "954"
    input: "stage2.rebnconvin.bn_s1.weight"
    input: "stage2.rebnconvin.bn_s1.bias"
    input: "stage2.rebnconvin.bn_s1.running_mean"
    input: "stage2.rebnconvin.bn_s1.running_var"
    output: "955"
    name: "BatchNormalization_156"
    op_type: "BatchNormalization"
    attribute {
      name: "epsilon"
      f: 9.999999747378752e-06
      type: FLOAT
    }
    attribute {
      name: "momentum"
      f: 0.8999999761581421
      type: FLOAT
    }
  }
  node {
    input: "955"
    output: "956"
    name: "Relu_157"
    op_type: "Relu"
  }
  node {
    input: "956"
    input: "stage2.rebnconv1.conv_s1.weight"
    input: "stage2.rebnconv1.conv_s1.bias"
    output: "957"
    name: "Conv_158"
    op_type: "Conv"
    attribute {
      name: "dilations"
      ints: 1
      ints: 1
      type: INTS
    }
    attribute {
      name: "group"
      i: 1
      type: INT
    }
    attribute {
      name: "kernel_shape"
      ints: 3
      ints: 3
      type: INTS
    }
    attribute {
      name: "pads"
      ints: 1
      ints: 1
      ints: 1
      ints: 1
      type: INTS
    }
    attribute {
      name: "strides"
      ints: 1
      ints: 1
      type: INTS
    }
  }
  node {
    input: "957"
    input: "stage2.rebnconv1.bn_s1.weight"
    input: "stage2.rebnconv1.bn_s1.bias"
    input: "stage2.rebnconv1.bn_s1.running_mean"
    input: "stage2.rebnconv1.bn_s1.running_var"
    output: "958"
    name: "BatchNormalization_159"
    op_type: "BatchNormalization"
    attribute {
      name: "epsilon"
      f: 9.999999747378752e-06
      type: FLOAT
    }
    attribute {
      name: "momentum"
      f: 0.8999999761581421
      type: FLOAT
    }
  }
  node {
    input: "958"
    output: "959"
    name: "Relu_160"
    op_type: "Relu"
  }
  node {
    input: "959"
    output: "960"
    name: "MaxPool_161"
    op_type: "MaxPool"
    attribute {
      name: "ceil_mode"
      i: 1
      type: INT
    }
    attribute {
      name: "kernel_shape"
      ints: 2
      ints: 2
      type: INTS
    }
    attribute {
      name: "pads"
      ints: 0
      ints: 0
      ints: 0
      ints: 0
      type: INTS
    }
    attribute {
      name: "strides"
      ints: 2
      ints: 2
      type: INTS
    }
  }
  node {
    input: "960"
    input: "stage2.rebnconv2.conv_s1.weight"
    input: "stage2.rebnconv2.conv_s1.bias"
    output: "961"
    name: "Conv_162"
    op_type: "Conv"
    attribute {
      name: "dilations"
      ints: 1
      ints: 1
      type: INTS
    }
    attribute {
      name: "group"
      i: 1
      type: INT
    }
    attribute {
      name: "kernel_shape"
      ints: 3
      ints: 3
      type: INTS
    }
    attribute {
      name: "pads"
      ints: 1
      ints: 1
      ints: 1
      ints: 1
      type: INTS
    }
    attribute {
      name: "strides"
      ints: 1
      ints: 1
      type: INTS
    }
  }
  node {
    input: "961"
    input: "stage2.rebnconv2.bn_s1.weight"
    input: "stage2.rebnconv2.bn_s1.bias"
    input: "stage2.rebnconv2.bn_s1.running_mean"
    input: "stage2.rebnconv2.bn_s1.running_var"
    output: "962"
    name: "BatchNormalization_163"
    op_type: "BatchNormalization"
    attribute {
      name: "epsilon"
      f: 9.999999747378752e-06
      type: FLOAT
    }
    attribute {
      name: "momentum"
      f: 0.8999999761581421
      type: FLOAT
    }
  }
  node {
    input: "962"
    output: "963"
    name: "Relu_164"
    op_type: "Relu"
  }
  node {
    input: "963"
    output: "964"
    name: "MaxPool_165"
    op_type: "MaxPool"
    attribute {
      name: "ceil_mode"
      i: 1
      type: INT
    }
    attribute {
      name: "kernel_shape"
      ints: 2
      ints: 2
      type: INTS
    }
    attribute {
      name: "pads"
      ints: 0
      ints: 0
      ints: 0
      ints: 0
      type: INTS
    }
    attribute {
      name: "strides"
      ints: 2
      ints: 2
      type: INTS
    }
  }
  node {
    input: "964"
    input: "stage2.rebnconv3.conv_s1.weight"
    input: "stage2.rebnconv3.conv_s1.bias"
    output: "965"
    name: "Conv_166"
    op_type: "Conv"
    attribute {
      name: "dilations"
      ints: 1
      ints: 1
      type: INTS
    }
    attribute {
      name: "group"
      i: 1
      type: INT
    }
    attribute {
      name: "kernel_shape"
      ints: 3
      ints: 3
      type: INTS
    }
    attribute {
      name: "pads"
      ints: 1
      ints: 1
      ints: 1
      ints: 1
      type: INTS
    }
    attribute {
      name: "strides"
      ints: 1
      ints: 1
      type: INTS
    }
  }
  node {
    input: "965"
    input: "stage2.rebnconv3.bn_s1.weight"
    input: "stage2.rebnconv3.bn_s1.bias"
    input: "stage2.rebnconv3.bn_s1.running_mean"
    input: "stage2.rebnconv3.bn_s1.running_var"
    output: "966"
    name: "BatchNormalization_167"
    op_type: "BatchNormalization"
    attribute {
      name: "epsilon"
      f: 9.999999747378752e-06
      type: FLOAT
    }
    attribute {
      name: "momentum"
      f: 0.8999999761581421
      type: FLOAT
    }
  }
  node {
    input: "966"
    output: "967"
    name: "Relu_168"
    op_type: "Relu"
  }
  node {
    input: "967"
    output: "968"
    name: "MaxPool_169"
    op_type: "MaxPool"
    attribute {
      name: "ceil_mode"
      i: 1
      type: INT
    }
    attribute {
      name: "kernel_shape"
      ints: 2
      ints: 2
      type: INTS
    }
    attribute {
      name: "pads"
      ints: 0
      ints: 0
      ints: 0
      ints: 0
      type: INTS
    }
    attribute {
      name: "strides"
      ints: 2
      ints: 2
      type: INTS
    }
  }
  node {
    input: "968"
    input: "stage2.rebnconv4.conv_s1.weight"
    input: "stage2.rebnconv4.conv_s1.bias"
    output: "969"
    name: "Conv_170"
    op_type: "Conv"
    attribute {
      name: "dilations"
      ints: 1
      ints: 1
      type: INTS
    }
    attribute {
      name: "group"
      i: 1
      type: INT
    }
    attribute {
      name: "kernel_shape"
      ints: 3
      ints: 3
      type: INTS
    }
    attribute {
      name: "pads"
      ints: 1
      ints: 1
      ints: 1
      ints: 1
      type: INTS
    }
    attribute {
      name: "strides"
      ints: 1
      ints: 1
      type: INTS
    }
  }
  node {
    input: "969"
    input: "stage2.rebnconv4.bn_s1.weight"
    input: "stage2.rebnconv4.bn_s1.bias"
    input: "stage2.rebnconv4.bn_s1.running_mean"
    input: "stage2.rebnconv4.bn_s1.running_var"
    output: "970"
    name: "BatchNormalization_171"
    op_type: "BatchNormalization"
    attribute {
      name: "epsilon"
      f: 9.999999747378752e-06
      type: FLOAT
    }
    attribute {
      name: "momentum"
      f: 0.8999999761581421
      type: FLOAT
    }
  }
  node {
    input: "970"
    output: "971"
    name: "Relu_172"
    op_type: "Relu"
  }
  node {
    input: "971"
    output: "972"
    name: "MaxPool_173"
    op_type: "MaxPool"
    attribute {
      name: "ceil_mode"
      i: 1
      type: INT
    }
    attribute {
      name: "kernel_shape"
      ints: 2
      ints: 2
      type: INTS
    }
    attribute {
      name: "pads"
      ints: 0
      ints: 0
      ints: 0
      ints: 0
      type: INTS
    }
    attribute {
      name: "strides"
      ints: 2
      ints: 2
      type: INTS
    }
  }
  node {
    input: "972"
    input: "stage2.rebnconv5.conv_s1.weight"
    input: "stage2.rebnconv5.conv_s1.bias"
    output: "973"
    name: "Conv_174"
    op_type: "Conv"
    attribute {
      name: "dilations"
      ints: 1
      ints: 1
      type: INTS
    }
    attribute {
      name: "group"
      i: 1
      type: INT
    }
    attribute {
      name: "kernel_shape"
      ints: 3
      ints: 3
      type: INTS
    }
    attribute {
      name: "pads"
      ints: 1
      ints: 1
      ints: 1
      ints: 1
      type: INTS
    }
    attribute {
      name: "strides"
      ints: 1
      ints: 1
      type: INTS
    }
  }
  node {
    input: "973"
    input: "stage2.rebnconv5.bn_s1.weight"
    input: "stage2.rebnconv5.bn_s1.bias"
    input: "stage2.rebnconv5.bn_s1.running_mean"
    input: "stage2.rebnconv5.bn_s1.running_var"
    output: "974"
    name: "BatchNormalization_175"
    op_type: "BatchNormalization"
    attribute {
      name: "epsilon"
      f: 9.999999747378752e-06
      type: FLOAT
    }
    attribute {
      name: "momentum"
      f: 0.8999999761581421
      type: FLOAT
    }
  }
  node {
    input: "974"
    output: "975"
    name: "Relu_176"
    op_type: "Relu"
  }
  node {
    input: "975"
    input: "stage2.rebnconv6.conv_s1.weight"
    input: "stage2.rebnconv6.conv_s1.bias"
    output: "976"
    name: "Conv_177"
    op_type: "Conv"
    attribute {
      name: "dilations"
      ints: 2
      ints: 2
      type: INTS
    }
    attribute {
      name: "group"
      i: 1
      type: INT
    }
    attribute {
      name: "kernel_shape"
      ints: 3
      ints: 3
      type: INTS
    }
    attribute {
      name: "pads"
      ints: 2
      ints: 2
      ints: 2
      ints: 2
      type: INTS
    }
    attribute {
      name: "strides"
      ints: 1
      ints: 1
      type: INTS
    }
  }
  node {
    input: "976"
    input: "stage2.rebnconv6.bn_s1.weight"
    input: "stage2.rebnconv6.bn_s1.bias"
    input: "stage2.rebnconv6.bn_s1.running_mean"
    input: "stage2.rebnconv6.bn_s1.running_var"
    output: "977"
    name: "BatchNormalization_178"
    op_type: "BatchNormalization"
    attribute {
      name: "epsilon"
      f: 9.999999747378752e-06
      type: FLOAT
    }
    attribute {
      name: "momentum"
      f: 0.8999999761581421
      type: FLOAT
    }
  }
  node {
    input: "977"
    output: "978"
    name: "Relu_179"
    op_type: "Relu"
  }
  node {
    input: "978"
    input: "975"
    output: "979"
    name: "Concat_180"
    op_type: "Concat"
    attribute {
      name: "axis"
      i: 1
      type: INT
    }
  }
  node {
    input: "979"
    input: "stage2.rebnconv5d.conv_s1.weight"
    input: "stage2.rebnconv5d.conv_s1.bias"
    output: "980"
    name: "Conv_181"
    op_type: "Conv"
    attribute {
      name: "dilations"
      ints: 1
      ints: 1
      type: INTS
    }
    attribute {
      name: "group"
      i: 1
      type: INT
    }
    attribute {
      name: "kernel_shape"
      ints: 3
      ints: 3
      type: INTS
    }
    attribute {
      name: "pads"
      ints: 1
      ints: 1
      ints: 1
      ints: 1
      type: INTS
    }
    attribute {
      name: "strides"
      ints: 1
      ints: 1
      type: INTS
    }
  }
  node {
    input: "980"
    input: "stage2.rebnconv5d.bn_s1.weight"
    input: "stage2.rebnconv5d.bn_s1.bias"
    input: "stage2.rebnconv5d.bn_s1.running_mean"
    input: "stage2.rebnconv5d.bn_s1.running_var"
    output: "981"
    name: "BatchNormalization_182"
    op_type: "BatchNormalization"
    attribute {
      name: "epsilon"
      f: 9.999999747378752e-06
      type: FLOAT
    }
    attribute {
      name: "momentum"
      f: 0.8999999761581421
      type: FLOAT
    }
  }
  node {
    input: "981"
    output: "982"
    name: "Relu_183"
    op_type: "Relu"
  }
  node {
    input: "971"
    output: "983"
    name: "Shape_184"
    op_type: "Shape"
  }
  node {
    output: "984"
    name: "Constant_185"
    op_type: "Constant"
    attribute {
      name: "value"
      t {
        data_type: 7
      }
      type: TENSOR
    }
  }
  node {
    input: "983"
    input: "984"
    output: "985"
    name: "Gather_186"
    op_type: "Gather"
    attribute {
      name: "axis"
      i: 0
      type: INT
    }
  }
  node {
    input: "971"
    output: "986"
    name: "Shape_187"
    op_type: "Shape"
  }
  node {
    output: "987"
    name: "Constant_188"
    op_type: "Constant"
    attribute {
      name: "value"
      t {
        data_type: 7
      }
      type: TENSOR
    }
  }
  node {
    input: "986"
    input: "987"
    output: "988"
    name: "Gather_189"
    op_type: "Gather"
    attribute {
      name: "axis"
      i: 0
      type: INT
    }
  }
  node {
    input: "985"
    output: "989"
    name: "Unsqueeze_190"
    op_type: "Unsqueeze"
    attribute {
      name: "axes"
      ints: 0
      type: INTS
    }
  }
  node {
    input: "988"
    output: "990"
    name: "Unsqueeze_191"
    op_type: "Unsqueeze"
    attribute {
      name: "axes"
      ints: 0
      type: INTS
    }
  }
  node {
    input: "989"
    input: "990"
    output: "991"
    name: "Concat_192"
    op_type: "Concat"
    attribute {
      name: "axis"
      i: 0
      type: INT
    }
  }
  node {
    output: "992"
    name: "Constant_193"
    op_type: "Constant"
    attribute {
      name: "value"
      t {
        dims: 2
        data_type: 1
      }
      type: TENSOR
    }
  }
  node {
    input: "991"
    output: "993"
    name: "Cast_194"
    op_type: "Cast"
    attribute {
      name: "to"
      i: 1
      type: INT
    }
  }
  node {
    input: "982"
    output: "994"
    name: "Shape_195"
    op_type: "Shape"
  }
  node {
    output: "995"
    name: "Constant_196"
    op_type: "Constant"
    attribute {
      name: "value"
      t {
        dims: 1
        data_type: 7
      }
      type: TENSOR
    }
  }
  node {
    output: "996"
    name: "Constant_197"
    op_type: "Constant"
    attribute {
      name: "value"
      t {
        dims: 1
        data_type: 7
      }
      type: TENSOR
    }
  }
  node {
    output: "997"
    name: "Constant_198"
    op_type: "Constant"
    attribute {
      name: "value"
      t {
        dims: 1
        data_type: 7
      }
      type: TENSOR
    }
  }
  node {
    input: "994"
    input: "996"
    input: "997"
    input: "995"
    output: "998"
    name: "Slice_199"
    op_type: "Slice"
  }
  node {
    input: "998"
    output: "999"
    name: "Cast_200"
    op_type: "Cast"
    attribute {
      name: "to"
      i: 1
      type: INT
    }
  }
  node {
    input: "993"
    input: "999"
    output: "1000"
    name: "Div_201"
    op_type: "Div"
  }
  node {
    input: "992"
    input: "1000"
    output: "1001"
    name: "Concat_202"
    op_type: "Concat"
    attribute {
      name: "axis"
      i: 0
      type: INT
    }
  }
  node {
    input: "982"
    input: "1001"
    output: "1002"
    name: "Resize_203"
    op_type: "Resize"
    attribute {
      name: "mode"
      s: "linear"
      type: STRING
    }
  }
  node {
    input: "1002"
    input: "971"
    output: "1003"
    name: "Concat_204"
    op_type: "Concat"
    attribute {
      name: "axis"
      i: 1
      type: INT
    }
  }
  node {
    input: "1003"
    input: "stage2.rebnconv4d.conv_s1.weight"
    input: "stage2.rebnconv4d.conv_s1.bias"
    output: "1004"
    name: "Conv_205"
    op_type: "Conv"
    attribute {
      name: "dilations"
      ints: 1
      ints: 1
      type: INTS
    }
    attribute {
      name: "group"
      i: 1
      type: INT
    }
    attribute {
      name: "kernel_shape"
      ints: 3
      ints: 3
      type: INTS
    }
    attribute {
      name: "pads"
      ints: 1
      ints: 1
      ints: 1
      ints: 1
      type: INTS
    }
    attribute {
      name: "strides"
      ints: 1
      ints: 1
      type: INTS
    }
  }
  node {
    input: "1004"
    input: "stage2.rebnconv4d.bn_s1.weight"
    input: "stage2.rebnconv4d.bn_s1.bias"
    input: "stage2.rebnconv4d.bn_s1.running_mean"
    input: "stage2.rebnconv4d.bn_s1.running_var"
    output: "1005"
    name: "BatchNormalization_206"
    op_type: "BatchNormalization"
    attribute {
      name: "epsilon"
      f: 9.999999747378752e-06
      type: FLOAT
    }
    attribute {
      name: "momentum"
      f: 0.8999999761581421
      type: FLOAT
    }
  }
  node {
    input: "1005"
    output: "1006"
    name: "Relu_207"
    op_type: "Relu"
  }
  node {
    input: "967"
    output: "1007"
    name: "Shape_208"
    op_type: "Shape"
  }
  node {
    output: "1008"
    name: "Constant_209"
    op_type: "Constant"
    attribute {
      name: "value"
      t {
        data_type: 7
      }
      type: TENSOR
    }
  }
  node {
    input: "1007"
    input: "1008"
    output: "1009"
    name: "Gather_210"
    op_type: "Gather"
    attribute {
      name: "axis"
      i: 0
      type: INT
    }
  }
  node {
    input: "967"
    output: "1010"
    name: "Shape_211"
    op_type: "Shape"
  }
  node {
    output: "1011"
    name: "Constant_212"
    op_type: "Constant"
    attribute {
      name: "value"
      t {
        data_type: 7
      }
      type: TENSOR
    }
  }
  node {
    input: "1010"
    input: "1011"
    output: "1012"
    name: "Gather_213"
    op_type: "Gather"
    attribute {
      name: "axis"
      i: 0
      type: INT
    }
  }
  node {
    input: "1009"
    output: "1013"
    name: "Unsqueeze_214"
    op_type: "Unsqueeze"
    attribute {
      name: "axes"
      ints: 0
      type: INTS
    }
  }
  node {
    input: "1012"
    output: "1014"
    name: "Unsqueeze_215"
    op_type: "Unsqueeze"
    attribute {
      name: "axes"
      ints: 0
      type: INTS
    }
  }
  node {
    input: "1013"
    input: "1014"
    output: "1015"
    name: "Concat_216"
    op_type: "Concat"
    attribute {
      name: "axis"
      i: 0
      type: INT
    }
  }
  node {
    output: "1016"
    name: "Constant_217"
    op_type: "Constant"
    attribute {
      name: "value"
      t {
        dims: 2
        data_type: 1
      }
      type: TENSOR
    }
  }
  node {
    input: "1015"
    output: "1017"
    name: "Cast_218"
    op_type: "Cast"
    attribute {
      name: "to"
      i: 1
      type: INT
    }
  }
  node {
    input: "1006"
    output: "1018"
    name: "Shape_219"
    op_type: "Shape"
  }
  node {
    output: "1019"
    name: "Constant_220"
    op_type: "Constant"
    attribute {
      name: "value"
      t {
        dims: 1
        data_type: 7
      }
      type: TENSOR
    }
  }
  node {
    output: "1020"
    name: "Constant_221"
    op_type: "Constant"
    attribute {
      name: "value"
      t {
        dims: 1
        data_type: 7
      }
      type: TENSOR
    }
  }
  node {
    output: "1021"
    name: "Constant_222"
    op_type: "Constant"
    attribute {
      name: "value"
      t {
        dims: 1
        data_type: 7
      }
      type: TENSOR
    }
  }
  node {
    input: "1018"
    input: "1020"
    input: "1021"
    input: "1019"
    output: "1022"
    name: "Slice_223"
    op_type: "Slice"
  }
  node {
    input: "1022"
    output: "1023"
    name: "Cast_224"
    op_type: "Cast"
    attribute {
      name: "to"
      i: 1
      type: INT
    }
  }
  node {
    input: "1017"
    input: "1023"
    output: "1024"
    name: "Div_225"
    op_type: "Div"
  }
  node {
    input: "1016"
    input: "1024"
    output: "1025"
    name: "Concat_226"
    op_type: "Concat"
    attribute {
      name: "axis"
      i: 0
      type: INT
    }
  }
  node {
    input: "1006"
    input: "1025"
    output: "1026"
    name: "Resize_227"
    op_type: "Resize"
    attribute {
      name: "mode"
      s: "linear"
      type: STRING
    }
  }
  node {
    input: "1026"
    input: "967"
    output: "1027"
    name: "Concat_228"
    op_type: "Concat"
    attribute {
      name: "axis"
      i: 1
      type: INT
    }
  }
  node {
    input: "1027"
    input: "stage2.rebnconv3d.conv_s1.weight"
    input: "stage2.rebnconv3d.conv_s1.bias"
    output: "1028"
    name: "Conv_229"
    op_type: "Conv"
    attribute {
      name: "dilations"
      ints: 1
      ints: 1
      type: INTS
    }
    attribute {
      name: "group"
      i: 1
      type: INT
    }
    attribute {
      name: "kernel_shape"
      ints: 3
      ints: 3
      type: INTS
    }
    attribute {
      name: "pads"
      ints: 1
      ints: 1
      ints: 1
      ints: 1
      type: INTS
    }
    attribute {
      name: "strides"
      ints: 1
      ints: 1
      type: INTS
    }
  }
  node {
    input: "1028"
    input: "stage2.rebnconv3d.bn_s1.weight"
    input: "stage2.rebnconv3d.bn_s1.bias"
    input: "stage2.rebnconv3d.bn_s1.running_mean"
    input: "stage2.rebnconv3d.bn_s1.running_var"
    output: "1029"
    name: "BatchNormalization_230"
    op_type: "BatchNormalization"
    attribute {
      name: "epsilon"
      f: 9.999999747378752e-06
      type: FLOAT
    }
    attribute {
      name: "momentum"
      f: 0.8999999761581421
      type: FLOAT
    }
  }
  node {
    input: "1029"
    output: "1030"
    name: "Relu_231"
    op_type: "Relu"
  }
  node {
    input: "963"
    output: "1031"
    name: "Shape_232"
    op_type: "Shape"
  }
  node {
    output: "1032"
    name: "Constant_233"
    op_type: "Constant"
    attribute {
      name: "value"
      t {
        data_type: 7
      }
      type: TENSOR
    }
  }
  node {
    input: "1031"
    input: "1032"
    output: "1033"
    name: "Gather_234"
    op_type: "Gather"
    attribute {
      name: "axis"
      i: 0
      type: INT
    }
  }
  node {
    input: "963"
    output: "1034"
    name: "Shape_235"
    op_type: "Shape"
  }
  node {
    output: "1035"
    name: "Constant_236"
    op_type: "Constant"
    attribute {
      name: "value"
      t {
        data_type: 7
      }
      type: TENSOR
    }
  }
  node {
    input: "1034"
    input: "1035"
    output: "1036"
    name: "Gather_237"
    op_type: "Gather"
    attribute {
      name: "axis"
      i: 0
      type: INT
    }
  }
  node {
    input: "1033"
    output: "1037"
    name: "Unsqueeze_238"
    op_type: "Unsqueeze"
    attribute {
      name: "axes"
      ints: 0
      type: INTS
    }
  }
  node {
    input: "1036"
    output: "1038"
    name: "Unsqueeze_239"
    op_type: "Unsqueeze"
    attribute {
      name: "axes"
      ints: 0
      type: INTS
    }
  }
  node {
    input: "1037"
    input: "1038"
    output: "1039"
    name: "Concat_240"
    op_type: "Concat"
    attribute {
      name: "axis"
      i: 0
      type: INT
    }
  }
  node {
    output: "1040"
    name: "Constant_241"
    op_type: "Constant"
    attribute {
      name: "value"
      t {
        dims: 2
        data_type: 1
      }
      type: TENSOR
    }
  }
  node {
    input: "1039"
    output: "1041"
    name: "Cast_242"
    op_type: "Cast"
    attribute {
      name: "to"
      i: 1
      type: INT
    }
  }
  node {
    input: "1030"
    output: "1042"
    name: "Shape_243"
    op_type: "Shape"
  }
  node {
    output: "1043"
    name: "Constant_244"
    op_type: "Constant"
    attribute {
      name: "value"
      t {
        dims: 1
        data_type: 7
      }
      type: TENSOR
    }
  }
  node {
    output: "1044"
    name: "Constant_245"
    op_type: "Constant"
    attribute {
      name: "value"
      t {
        dims: 1
        data_type: 7
      }
      type: TENSOR
    }
  }
  node {
    output: "1045"
    name: "Constant_246"
    op_type: "Constant"
    attribute {
      name: "value"
      t {
        dims: 1
        data_type: 7
      }
      type: TENSOR
    }
  }
  node {
    input: "1042"
    input: "1044"
    input: "1045"
    input: "1043"
    output: "1046"
    name: "Slice_247"
    op_type: "Slice"
  }
  node {
    input: "1046"
    output: "1047"
    name: "Cast_248"
    op_type: "Cast"
    attribute {
      name: "to"
      i: 1
      type: INT
    }
  }
  node {
    input: "1041"
    input: "1047"
    output: "1048"
    name: "Div_249"
    op_type: "Div"
  }
  node {
    input: "1040"
    input: "1048"
    output: "1049"
    name: "Concat_250"
    op_type: "Concat"
    attribute {
      name: "axis"
      i: 0
      type: INT
    }
  }
  node {
    input: "1030"
    input: "1049"
    output: "1050"
    name: "Resize_251"
    op_type: "Resize"
    attribute {
      name: "mode"
      s: "linear"
      type: STRING
    }
  }
  node {
    input: "1050"
    input: "963"
    output: "1051"
    name: "Concat_252"
    op_type: "Concat"
    attribute {
      name: "axis"
      i: 1
      type: INT
    }
  }
  node {
    input: "1051"
    input: "stage2.rebnconv2d.conv_s1.weight"
    input: "stage2.rebnconv2d.conv_s1.bias"
    output: "1052"
    name: "Conv_253"
    op_type: "Conv"
    attribute {
      name: "dilations"
      ints: 1
      ints: 1
      type: INTS
    }
    attribute {
      name: "group"
      i: 1
      type: INT
    }
    attribute {
      name: "kernel_shape"
      ints: 3
      ints: 3
      type: INTS
    }
    attribute {
      name: "pads"
      ints: 1
      ints: 1
      ints: 1
      ints: 1
      type: INTS
    }
    attribute {
      name: "strides"
      ints: 1
      ints: 1
      type: INTS
    }
  }
  node {
    input: "1052"
    input: "stage2.rebnconv2d.bn_s1.weight"
    input: "stage2.rebnconv2d.bn_s1.bias"
    input: "stage2.rebnconv2d.bn_s1.running_mean"
    input: "stage2.rebnconv2d.bn_s1.running_var"
    output: "1053"
    name: "BatchNormalization_254"
    op_type: "BatchNormalization"
    attribute {
      name: "epsilon"
      f: 9.999999747378752e-06
      type: FLOAT
    }
    attribute {
      name: "momentum"
      f: 0.8999999761581421
      type: FLOAT
    }
  }
  node {
    input: "1053"
    output: "1054"
    name: "Relu_255"
    op_type: "Relu"
  }
  node {
    input: "959"
    output: "1055"
    name: "Shape_256"
    op_type: "Shape"
  }
  node {
    output: "1056"
    name: "Constant_257"
    op_type: "Constant"
    attribute {
      name: "value"
      t {
        data_type: 7
      }
      type: TENSOR
    }
  }
  node {
    input: "1055"
    input: "1056"
    output: "1057"
    name: "Gather_258"
    op_type: "Gather"
    attribute {
      name: "axis"
      i: 0
      type: INT
    }
  }
  node {
    input: "959"
    output: "1058"
    name: "Shape_259"
    op_type: "Shape"
  }
  node {
    output: "1059"
    name: "Constant_260"
    op_type: "Constant"
    attribute {
      name: "value"
      t {
        data_type: 7
      }
      type: TENSOR
    }
  }
  node {
    input: "1058"
    input: "1059"
    output: "1060"
    name: "Gather_261"
    op_type: "Gather"
    attribute {
      name: "axis"
      i: 0
      type: INT
    }
  }
  node {
    input: "1057"
    output: "1061"
    name: "Unsqueeze_262"
    op_type: "Unsqueeze"
    attribute {
      name: "axes"
      ints: 0
      type: INTS
    }
  }
  node {
    input: "1060"
    output: "1062"
    name: "Unsqueeze_263"
    op_type: "Unsqueeze"
    attribute {
      name: "axes"
      ints: 0
      type: INTS
    }
  }
  node {
    input: "1061"
    input: "1062"
    output: "1063"
    name: "Concat_264"
    op_type: "Concat"
    attribute {
      name: "axis"
      i: 0
      type: INT
    }
  }
  node {
    output: "1064"
    name: "Constant_265"
    op_type: "Constant"
    attribute {
      name: "value"
      t {
        dims: 2
        data_type: 1
      }
      type: TENSOR
    }
  }
  node {
    input: "1063"
    output: "1065"
    name: "Cast_266"
    op_type: "Cast"
    attribute {
      name: "to"
      i: 1
      type: INT
    }
  }
  node {
    input: "1054"
    output: "1066"
    name: "Shape_267"
    op_type: "Shape"
  }
  node {
    output: "1067"
    name: "Constant_268"
    op_type: "Constant"
    attribute {
      name: "value"
      t {
        dims: 1
        data_type: 7
      }
      type: TENSOR
    }
  }
  node {
    output: "1068"
    name: "Constant_269"
    op_type: "Constant"
    attribute {
      name: "value"
      t {
        dims: 1
        data_type: 7
      }
      type: TENSOR
    }
  }
  node {
    output: "1069"
    name: "Constant_270"
    op_type: "Constant"
    attribute {
      name: "value"
      t {
        dims: 1
        data_type: 7
      }
      type: TENSOR
    }
  }
  node {
    input: "1066"
    input: "1068"
    input: "1069"
    input: "1067"
    output: "1070"
    name: "Slice_271"
    op_type: "Slice"
  }
  node {
    input: "1070"
    output: "1071"
    name: "Cast_272"
    op_type: "Cast"
    attribute {
      name: "to"
      i: 1
      type: INT
    }
  }
  node {
    input: "1065"
    input: "1071"
    output: "1072"
    name: "Div_273"
    op_type: "Div"
  }
  node {
    input: "1064"
    input: "1072"
    output: "1073"
    name: "Concat_274"
    op_type: "Concat"
    attribute {
      name: "axis"
      i: 0
      type: INT
    }
  }
  node {
    input: "1054"
    input: "1073"
    output: "1074"
    name: "Resize_275"
    op_type: "Resize"
    attribute {
      name: "mode"
      s: "linear"
      type: STRING
    }
  }
  node {
    input: "1074"
    input: "959"
    output: "1075"
    name: "Concat_276"
    op_type: "Concat"
    attribute {
      name: "axis"
      i: 1
      type: INT
    }
  }
  node {
    input: "1075"
    input: "stage2.rebnconv1d.conv_s1.weight"
    input: "stage2.rebnconv1d.conv_s1.bias"
    output: "1076"
    name: "Conv_277"
    op_type: "Conv"
    attribute {
      name: "dilations"
      ints: 1
      ints: 1
      type: INTS
    }
    attribute {
      name: "group"
      i: 1
      type: INT
    }
    attribute {
      name: "kernel_shape"
      ints: 3
      ints: 3
      type: INTS
    }
    attribute {
      name: "pads"
      ints: 1
      ints: 1
      ints: 1
      ints: 1
      type: INTS
    }
    attribute {
      name: "strides"
      ints: 1
      ints: 1
      type: INTS
    }
  }
  node {
    input: "1076"
    input: "stage2.rebnconv1d.bn_s1.weight"
    input: "stage2.rebnconv1d.bn_s1.bias"
    input: "stage2.rebnconv1d.bn_s1.running_mean"
    input: "stage2.rebnconv1d.bn_s1.running_var"
    output: "1077"
    name: "BatchNormalization_278"
    op_type: "BatchNormalization"
    attribute {
      name: "epsilon"
      f: 9.999999747378752e-06
      type: FLOAT
    }
    attribute {
      name: "momentum"
      f: 0.8999999761581421
      type: FLOAT
    }
  }
  node {
    input: "1077"
    output: "1078"
    name: "Relu_279"
    op_type: "Relu"
  }
  node {
    input: "1078"
    input: "956"
    output: "1079"
    name: "Add_280"
    op_type: "Add"
  }
  node {
    input: "1079"
    output: "1080"
    name: "MaxPool_281"
    op_type: "MaxPool"
    attribute {
      name: "ceil_mode"
      i: 1
      type: INT
    }
    attribute {
      name: "kernel_shape"
      ints: 2
      ints: 2
      type: INTS
    }
    attribute {
      name: "pads"
      ints: 0
      ints: 0
      ints: 0
      ints: 0
      type: INTS
    }
    attribute {
      name: "strides"
      ints: 2
      ints: 2
      type: INTS
    }
  }
  node {
    input: "1080"
    input: "stage3.rebnconvin.conv_s1.weight"
    input: "stage3.rebnconvin.conv_s1.bias"
    output: "1081"
    name: "Conv_282"
    op_type: "Conv"
    attribute {
      name: "dilations"
      ints: 1
      ints: 1
      type: INTS
    }
    attribute {
      name: "group"
      i: 1
      type: INT
    }
    attribute {
      name: "kernel_shape"
      ints: 3
      ints: 3
      type: INTS
    }
    attribute {
      name: "pads"
      ints: 1
      ints: 1
      ints: 1
      ints: 1
      type: INTS
    }
    attribute {
      name: "strides"
      ints: 1
      ints: 1
      type: INTS
    }
  }
  node {
    input: "1081"
    input: "stage3.rebnconvin.bn_s1.weight"
    input: "stage3.rebnconvin.bn_s1.bias"
    input: "stage3.rebnconvin.bn_s1.running_mean"
    input: "stage3.rebnconvin.bn_s1.running_var"
    output: "1082"
    name: "BatchNormalization_283"
    op_type: "BatchNormalization"
    attribute {
      name: "epsilon"
      f: 9.999999747378752e-06
      type: FLOAT
    }
    attribute {
      name: "momentum"
      f: 0.8999999761581421
      type: FLOAT
    }
  }
  node {
    input: "1082"
    output: "1083"
    name: "Relu_284"
    op_type: "Relu"
  }
  node {
    input: "1083"
    input: "stage3.rebnconv1.conv_s1.weight"
    input: "stage3.rebnconv1.conv_s1.bias"
    output: "1084"
    name: "Conv_285"
    op_type: "Conv"
    attribute {
      name: "dilations"
      ints: 1
      ints: 1
      type: INTS
    }
    attribute {
      name: "group"
      i: 1
      type: INT
    }
    attribute {
      name: "kernel_shape"
      ints: 3
      ints: 3
      type: INTS
    }
    attribute {
      name: "pads"
      ints: 1
      ints: 1
      ints: 1
      ints: 1
      type: INTS
    }
    attribute {
      name: "strides"
      ints: 1
      ints: 1
      type: INTS
    }
  }
  node {
    input: "1084"
    input: "stage3.rebnconv1.bn_s1.weight"
    input: "stage3.rebnconv1.bn_s1.bias"
    input: "stage3.rebnconv1.bn_s1.running_mean"
    input: "stage3.rebnconv1.bn_s1.running_var"
    output: "1085"
    name: "BatchNormalization_286"
    op_type: "BatchNormalization"
    attribute {
      name: "epsilon"
      f: 9.999999747378752e-06
      type: FLOAT
    }
    attribute {
      name: "momentum"
      f: 0.8999999761581421
      type: FLOAT
    }
  }
  node {
    input: "1085"
    output: "1086"
    name: "Relu_287"
    op_type: "Relu"
  }
  node {
    input: "1086"
    output: "1087"
    name: "MaxPool_288"
    op_type: "MaxPool"
    attribute {
      name: "ceil_mode"
      i: 1
      type: INT
    }
    attribute {
      name: "kernel_shape"
      ints: 2
      ints: 2
      type: INTS
    }
    attribute {
      name: "pads"
      ints: 0
      ints: 0
      ints: 0
      ints: 0
      type: INTS
    }
    attribute {
      name: "strides"
      ints: 2
      ints: 2
      type: INTS
    }
  }
  node {
    input: "1087"
    input: "stage3.rebnconv2.conv_s1.weight"
    input: "stage3.rebnconv2.conv_s1.bias"
    output: "1088"
    name: "Conv_289"
    op_type: "Conv"
    attribute {
      name: "dilations"
      ints: 1
      ints: 1
      type: INTS
    }
    attribute {
      name: "group"
      i: 1
      type: INT
    }
    attribute {
      name: "kernel_shape"
      ints: 3
      ints: 3
      type: INTS
    }
    attribute {
      name: "pads"
      ints: 1
      ints: 1
      ints: 1
      ints: 1
      type: INTS
    }
    attribute {
      name: "strides"
      ints: 1
      ints: 1
      type: INTS
    }
  }
  node {
    input: "1088"
    input: "stage3.rebnconv2.bn_s1.weight"
    input: "stage3.rebnconv2.bn_s1.bias"
    input: "stage3.rebnconv2.bn_s1.running_mean"
    input: "stage3.rebnconv2.bn_s1.running_var"
    output: "1089"
    name: "BatchNormalization_290"
    op_type: "BatchNormalization"
    attribute {
      name: "epsilon"
      f: 9.999999747378752e-06
      type: FLOAT
    }
    attribute {
      name: "momentum"
      f: 0.8999999761581421
      type: FLOAT
    }
  }
  node {
    input: "1089"
    output: "1090"
    name: "Relu_291"
    op_type: "Relu"
  }
  node {
    input: "1090"
    output: "1091"
    name: "MaxPool_292"
    op_type: "MaxPool"
    attribute {
      name: "ceil_mode"
      i: 1
      type: INT
    }
    attribute {
      name: "kernel_shape"
      ints: 2
      ints: 2
      type: INTS
    }
    attribute {
      name: "pads"
      ints: 0
      ints: 0
      ints: 0
      ints: 0
      type: INTS
    }
    attribute {
      name: "strides"
      ints: 2
      ints: 2
      type: INTS
    }
  }
  node {
    input: "1091"
    input: "stage3.rebnconv3.conv_s1.weight"
    input: "stage3.rebnconv3.conv_s1.bias"
    output: "1092"
    name: "Conv_293"
    op_type: "Conv"
    attribute {
      name: "dilations"
      ints: 1
      ints: 1
      type: INTS
    }
    attribute {
      name: "group"
      i: 1
      type: INT
    }
    attribute {
      name: "kernel_shape"
      ints: 3
      ints: 3
      type: INTS
    }
    attribute {
      name: "pads"
      ints: 1
      ints: 1
      ints: 1
      ints: 1
      type: INTS
    }
    attribute {
      name: "strides"
      ints: 1
      ints: 1
      type: INTS
    }
  }
  node {
    input: "1092"
    input: "stage3.rebnconv3.bn_s1.weight"
    input: "stage3.rebnconv3.bn_s1.bias"
    input: "stage3.rebnconv3.bn_s1.running_mean"
    input: "stage3.rebnconv3.bn_s1.running_var"
    output: "1093"
    name: "BatchNormalization_294"
    op_type: "BatchNormalization"
    attribute {
      name: "epsilon"
      f: 9.999999747378752e-06
      type: FLOAT
    }
    attribute {
      name: "momentum"
      f: 0.8999999761581421
      type: FLOAT
    }
  }
  node {
    input: "1093"
    output: "1094"
    name: "Relu_295"
    op_type: "Relu"
  }
  node {
    input: "1094"
    output: "1095"
    name: "MaxPool_296"
    op_type: "MaxPool"
    attribute {
      name: "ceil_mode"
      i: 1
      type: INT
    }
    attribute {
      name: "kernel_shape"
      ints: 2
      ints: 2
      type: INTS
    }
    attribute {
      name: "pads"
      ints: 0
      ints: 0
      ints: 0
      ints: 0
      type: INTS
    }
    attribute {
      name: "strides"
      ints: 2
      ints: 2
      type: INTS
    }
  }
  node {
    input: "1095"
    input: "stage3.rebnconv4.conv_s1.weight"
    input: "stage3.rebnconv4.conv_s1.bias"
    output: "1096"
    name: "Conv_297"
    op_type: "Conv"
    attribute {
      name: "dilations"
      ints: 1
      ints: 1
      type: INTS
    }
    attribute {
      name: "group"
      i: 1
      type: INT
    }
    attribute {
      name: "kernel_shape"
      ints: 3
      ints: 3
      type: INTS
    }
    attribute {
      name: "pads"
      ints: 1
      ints: 1
      ints: 1
      ints: 1
      type: INTS
    }
    attribute {
      name: "strides"
      ints: 1
      ints: 1
      type: INTS
    }
  }
  node {
    input: "1096"
    input: "stage3.rebnconv4.bn_s1.weight"
    input: "stage3.rebnconv4.bn_s1.bias"
    input: "stage3.rebnconv4.bn_s1.running_mean"
    input: "stage3.rebnconv4.bn_s1.running_var"
    output: "1097"
    name: "BatchNormalization_298"
    op_type: "BatchNormalization"
    attribute {
      name: "epsilon"
      f: 9.999999747378752e-06
      type: FLOAT
    }
    attribute {
      name: "momentum"
      f: 0.8999999761581421
      type: FLOAT
    }
  }
  node {
    input: "1097"
    output: "1098"
    name: "Relu_299"
    op_type: "Relu"
  }
  node {
    input: "1098"
    input: "stage3.rebnconv5.conv_s1.weight"
    input: "stage3.rebnconv5.conv_s1.bias"
    output: "1099"
    name: "Conv_300"
    op_type: "Conv"
    attribute {
      name: "dilations"
      ints: 2
      ints: 2
      type: INTS
    }
    attribute {
      name: "group"
      i: 1
      type: INT
    }
    attribute {
      name: "kernel_shape"
      ints: 3
      ints: 3
      type: INTS
    }
    attribute {
      name: "pads"
      ints: 2
      ints: 2
      ints: 2
      ints: 2
      type: INTS
    }
    attribute {
      name: "strides"
      ints: 1
      ints: 1
      type: INTS
    }
  }
  node {
    input: "1099"
    input: "stage3.rebnconv5.bn_s1.weight"
    input: "stage3.rebnconv5.bn_s1.bias"
    input: "stage3.rebnconv5.bn_s1.running_mean"
    input: "stage3.rebnconv5.bn_s1.running_var"
    output: "1100"
    name: "BatchNormalization_301"
    op_type: "BatchNormalization"
    attribute {
      name: "epsilon"
      f: 9.999999747378752e-06
      type: FLOAT
    }
    attribute {
      name: "momentum"
      f: 0.8999999761581421
      type: FLOAT
    }
  }
  node {
    input: "1100"
    output: "1101"
    name: "Relu_302"
    op_type: "Relu"
  }
  node {
    input: "1101"
    input: "1098"
    output: "1102"
    name: "Concat_303"
    op_type: "Concat"
    attribute {
      name: "axis"
      i: 1
      type: INT
    }
  }
  node {
    input: "1102"
    input: "stage3.rebnconv4d.conv_s1.weight"
    input: "stage3.rebnconv4d.conv_s1.bias"
    output: "1103"
    name: "Conv_304"
    op_type: "Conv"
    attribute {
      name: "dilations"
      ints: 1
      ints: 1
      type: INTS
    }
    attribute {
      name: "group"
      i: 1
      type: INT
    }
    attribute {
      name: "kernel_shape"
      ints: 3
      ints: 3
      type: INTS
    }
    attribute {
      name: "pads"
      ints: 1
      ints: 1
      ints: 1
      ints: 1
      type: INTS
    }
    attribute {
      name: "strides"
      ints: 1
      ints: 1
      type: INTS
    }
  }
  node {
    input: "1103"
    input: "stage3.rebnconv4d.bn_s1.weight"
    input: "stage3.rebnconv4d.bn_s1.bias"
    input: "stage3.rebnconv4d.bn_s1.running_mean"
    input: "stage3.rebnconv4d.bn_s1.running_var"
    output: "1104"
    name: "BatchNormalization_305"
    op_type: "BatchNormalization"
    attribute {
      name: "epsilon"
      f: 9.999999747378752e-06
      type: FLOAT
    }
    attribute {
      name: "momentum"
      f: 0.8999999761581421
      type: FLOAT
    }
  }
  node {
    input: "1104"
    output: "1105"
    name: "Relu_306"
    op_type: "Relu"
  }
  node {
    input: "1094"
    output: "1106"
    name: "Shape_307"
    op_type: "Shape"
  }
  node {
    output: "1107"
    name: "Constant_308"
    op_type: "Constant"
    attribute {
      name: "value"
      t {
        data_type: 7
      }
      type: TENSOR
    }
  }
  node {
    input: "1106"
    input: "1107"
    output: "1108"
    name: "Gather_309"
    op_type: "Gather"
    attribute {
      name: "axis"
      i: 0
      type: INT
    }
  }
  node {
    input: "1094"
    output: "1109"
    name: "Shape_310"
    op_type: "Shape"
  }
  node {
    output: "1110"
    name: "Constant_311"
    op_type: "Constant"
    attribute {
      name: "value"
      t {
        data_type: 7
      }
      type: TENSOR
    }
  }
  node {
    input: "1109"
    input: "1110"
    output: "1111"
    name: "Gather_312"
    op_type: "Gather"
    attribute {
      name: "axis"
      i: 0
      type: INT
    }
  }
  node {
    input: "1108"
    output: "1112"
    name: "Unsqueeze_313"
    op_type: "Unsqueeze"
    attribute {
      name: "axes"
      ints: 0
      type: INTS
    }
  }
  node {
    input: "1111"
    output: "1113"
    name: "Unsqueeze_314"
    op_type: "Unsqueeze"
    attribute {
      name: "axes"
      ints: 0
      type: INTS
    }
  }
  node {
    input: "1112"
    input: "1113"
    output: "1114"
    name: "Concat_315"
    op_type: "Concat"
    attribute {
      name: "axis"
      i: 0
      type: INT
    }
  }
  node {
    output: "1115"
    name: "Constant_316"
    op_type: "Constant"
    attribute {
      name: "value"
      t {
        dims: 2
        data_type: 1
      }
      type: TENSOR
    }
  }
  node {
    input: "1114"
    output: "1116"
    name: "Cast_317"
    op_type: "Cast"
    attribute {
      name: "to"
      i: 1
      type: INT
    }
  }
  node {
    input: "1105"
    output: "1117"
    name: "Shape_318"
    op_type: "Shape"
  }
  node {
    output: "1118"
    name: "Constant_319"
    op_type: "Constant"
    attribute {
      name: "value"
      t {
        dims: 1
        data_type: 7
      }
      type: TENSOR
    }
  }
  node {
    output: "1119"
    name: "Constant_320"
    op_type: "Constant"
    attribute {
      name: "value"
      t {
        dims: 1
        data_type: 7
      }
      type: TENSOR
    }
  }
  node {
    output: "1120"
    name: "Constant_321"
    op_type: "Constant"
    attribute {
      name: "value"
      t {
        dims: 1
        data_type: 7
      }
      type: TENSOR
    }
  }
  node {
    input: "1117"
    input: "1119"
    input: "1120"
    input: "1118"
    output: "1121"
    name: "Slice_322"
    op_type: "Slice"
  }
  node {
    input: "1121"
    output: "1122"
    name: "Cast_323"
    op_type: "Cast"
    attribute {
      name: "to"
      i: 1
      type: INT
    }
  }
  node {
    input: "1116"
    input: "1122"
    output: "1123"
    name: "Div_324"
    op_type: "Div"
  }
  node {
    input: "1115"
    input: "1123"
    output: "1124"
    name: "Concat_325"
    op_type: "Concat"
    attribute {
      name: "axis"
      i: 0
      type: INT
    }
  }
  node {
    input: "1105"
    input: "1124"
    output: "1125"
    name: "Resize_326"
    op_type: "Resize"
    attribute {
      name: "mode"
      s: "linear"
      type: STRING
    }
  }
  node {
    input: "1125"
    input: "1094"
    output: "1126"
    name: "Concat_327"
    op_type: "Concat"
    attribute {
      name: "axis"
      i: 1
      type: INT
    }
  }
  node {
    input: "1126"
    input: "stage3.rebnconv3d.conv_s1.weight"
    input: "stage3.rebnconv3d.conv_s1.bias"
    output: "1127"
    name: "Conv_328"
    op_type: "Conv"
    attribute {
      name: "dilations"
      ints: 1
      ints: 1
      type: INTS
    }
    attribute {
      name: "group"
      i: 1
      type: INT
    }
    attribute {
      name: "kernel_shape"
      ints: 3
      ints: 3
      type: INTS
    }
    attribute {
      name: "pads"
      ints: 1
      ints: 1
      ints: 1
      ints: 1
      type: INTS
    }
    attribute {
      name: "strides"
      ints: 1
      ints: 1
      type: INTS
    }
  }
  node {
    input: "1127"
    input: "stage3.rebnconv3d.bn_s1.weight"
    input: "stage3.rebnconv3d.bn_s1.bias"
    input: "stage3.rebnconv3d.bn_s1.running_mean"
    input: "stage3.rebnconv3d.bn_s1.running_var"
    output: "1128"
    name: "BatchNormalization_329"
    op_type: "BatchNormalization"
    attribute {
      name: "epsilon"
      f: 9.999999747378752e-06
      type: FLOAT
    }
    attribute {
      name: "momentum"
      f: 0.8999999761581421
      type: FLOAT
    }
  }
  node {
    input: "1128"
    output: "1129"
    name: "Relu_330"
    op_type: "Relu"
  }
  node {
    input: "1090"
    output: "1130"
    name: "Shape_331"
    op_type: "Shape"
  }
  node {
    output: "1131"
    name: "Constant_332"
    op_type: "Constant"
    attribute {
      name: "value"
      t {
        data_type: 7
      }
      type: TENSOR
    }
  }
  node {
    input: "1130"
    input: "1131"
    output: "1132"
    name: "Gather_333"
    op_type: "Gather"
    attribute {
      name: "axis"
      i: 0
      type: INT
    }
  }
  node {
    input: "1090"
    output: "1133"
    name: "Shape_334"
    op_type: "Shape"
  }
  node {
    output: "1134"
    name: "Constant_335"
    op_type: "Constant"
    attribute {
      name: "value"
      t {
        data_type: 7
      }
      type: TENSOR
    }
  }
  node {
    input: "1133"
    input: "1134"
    output: "1135"
    name: "Gather_336"
    op_type: "Gather"
    attribute {
      name: "axis"
      i: 0
      type: INT
    }
  }
  node {
    input: "1132"
    output: "1136"
    name: "Unsqueeze_337"
    op_type: "Unsqueeze"
    attribute {
      name: "axes"
      ints: 0
      type: INTS
    }
  }
  node {
    input: "1135"
    output: "1137"
    name: "Unsqueeze_338"
    op_type: "Unsqueeze"
    attribute {
      name: "axes"
      ints: 0
      type: INTS
    }
  }
  node {
    input: "1136"
    input: "1137"
    output: "1138"
    name: "Concat_339"
    op_type: "Concat"
    attribute {
      name: "axis"
      i: 0
      type: INT
    }
  }
  node {
    output: "1139"
    name: "Constant_340"
    op_type: "Constant"
    attribute {
      name: "value"
      t {
        dims: 2
        data_type: 1
      }
      type: TENSOR
    }
  }
  node {
    input: "1138"
    output: "1140"
    name: "Cast_341"
    op_type: "Cast"
    attribute {
      name: "to"
      i: 1
      type: INT
    }
  }
  node {
    input: "1129"
    output: "1141"
    name: "Shape_342"
    op_type: "Shape"
  }
  node {
    output: "1142"
    name: "Constant_343"
    op_type: "Constant"
    attribute {
      name: "value"
      t {
        dims: 1
        data_type: 7
      }
      type: TENSOR
    }
  }
  node {
    output: "1143"
    name: "Constant_344"
    op_type: "Constant"
    attribute {
      name: "value"
      t {
        dims: 1
        data_type: 7
      }
      type: TENSOR
    }
  }
  node {
    output: "1144"
    name: "Constant_345"
    op_type: "Constant"
    attribute {
      name: "value"
      t {
        dims: 1
        data_type: 7
      }
      type: TENSOR
    }
  }
  node {
    input: "1141"
    input: "1143"
    input: "1144"
    input: "1142"
    output: "1145"
    name: "Slice_346"
    op_type: "Slice"
  }
  node {
    input: "1145"
    output: "1146"
    name: "Cast_347"
    op_type: "Cast"
    attribute {
      name: "to"
      i: 1
      type: INT
    }
  }
  node {
    input: "1140"
    input: "1146"
    output: "1147"
    name: "Div_348"
    op_type: "Div"
  }
  node {
    input: "1139"
    input: "1147"
    output: "1148"
    name: "Concat_349"
    op_type: "Concat"
    attribute {
      name: "axis"
      i: 0
      type: INT
    }
  }
  node {
    input: "1129"
    input: "1148"
    output: "1149"
    name: "Resize_350"
    op_type: "Resize"
    attribute {
      name: "mode"
      s: "linear"
      type: STRING
    }
  }
  node {
    input: "1149"
    input: "1090"
    output: "1150"
    name: "Concat_351"
    op_type: "Concat"
    attribute {
      name: "axis"
      i: 1
      type: INT
    }
  }
  node {
    input: "1150"
    input: "stage3.rebnconv2d.conv_s1.weight"
    input: "stage3.rebnconv2d.conv_s1.bias"
    output: "1151"
    name: "Conv_352"
    op_type: "Conv"
    attribute {
      name: "dilations"
      ints: 1
      ints: 1
      type: INTS
    }
    attribute {
      name: "group"
      i: 1
      type: INT
    }
    attribute {
      name: "kernel_shape"
      ints: 3
      ints: 3
      type: INTS
    }
    attribute {
      name: "pads"
      ints: 1
      ints: 1
      ints: 1
      ints: 1
      type: INTS
    }
    attribute {
      name: "strides"
      ints: 1
      ints: 1
      type: INTS
    }
  }
  node {
    input: "1151"
    input: "stage3.rebnconv2d.bn_s1.weight"
    input: "stage3.rebnconv2d.bn_s1.bias"
    input: "stage3.rebnconv2d.bn_s1.running_mean"
    input: "stage3.rebnconv2d.bn_s1.running_var"
    output: "1152"
    name: "BatchNormalization_353"
    op_type: "BatchNormalization"
    attribute {
      name: "epsilon"
      f: 9.999999747378752e-06
      type: FLOAT
    }
    attribute {
      name: "momentum"
      f: 0.8999999761581421
      type: FLOAT
    }
  }
  node {
    input: "1152"
    output: "1153"
    name: "Relu_354"
    op_type: "Relu"
  }
  node {
    input: "1086"
    output: "1154"
    name: "Shape_355"
    op_type: "Shape"
  }
  node {
    output: "1155"
    name: "Constant_356"
    op_type: "Constant"
    attribute {
      name: "value"
      t {
        data_type: 7
      }
      type: TENSOR
    }
  }
  node {
    input: "1154"
    input: "1155"
    output: "1156"
    name: "Gather_357"
    op_type: "Gather"
    attribute {
      name: "axis"
      i: 0
      type: INT
    }
  }
  node {
    input: "1086"
    output: "1157"
    name: "Shape_358"
    op_type: "Shape"
  }
  node {
    output: "1158"
    name: "Constant_359"
    op_type: "Constant"
    attribute {
      name: "value"
      t {
        data_type: 7
      }
      type: TENSOR
    }
  }
  node {
    input: "1157"
    input: "1158"
    output: "1159"
    name: "Gather_360"
    op_type: "Gather"
    attribute {
      name: "axis"
      i: 0
      type: INT
    }
  }
  node {
    input: "1156"
    output: "1160"
    name: "Unsqueeze_361"
    op_type: "Unsqueeze"
    attribute {
      name: "axes"
      ints: 0
      type: INTS
    }
  }
  node {
    input: "1159"
    output: "1161"
    name: "Unsqueeze_362"
    op_type: "Unsqueeze"
    attribute {
      name: "axes"
      ints: 0
      type: INTS
    }
  }
  node {
    input: "1160"
    input: "1161"
    output: "1162"
    name: "Concat_363"
    op_type: "Concat"
    attribute {
      name: "axis"
      i: 0
      type: INT
    }
  }
  node {
    output: "1163"
    name: "Constant_364"
    op_type: "Constant"
    attribute {
      name: "value"
      t {
        dims: 2
        data_type: 1
      }
      type: TENSOR
    }
  }
  node {
    input: "1162"
    output: "1164"
    name: "Cast_365"
    op_type: "Cast"
    attribute {
      name: "to"
      i: 1
      type: INT
    }
  }
  node {
    input: "1153"
    output: "1165"
    name: "Shape_366"
    op_type: "Shape"
  }
  node {
    output: "1166"
    name: "Constant_367"
    op_type: "Constant"
    attribute {
      name: "value"
      t {
        dims: 1
        data_type: 7
      }
      type: TENSOR
    }
  }
  node {
    output: "1167"
    name: "Constant_368"
    op_type: "Constant"
    attribute {
      name: "value"
      t {
        dims: 1
        data_type: 7
      }
      type: TENSOR
    }
  }
  node {
    output: "1168"
    name: "Constant_369"
    op_type: "Constant"
    attribute {
      name: "value"
      t {
        dims: 1
        data_type: 7
      }
      type: TENSOR
    }
  }
  node {
    input: "1165"
    input: "1167"
    input: "1168"
    input: "1166"
    output: "1169"
    name: "Slice_370"
    op_type: "Slice"
  }
  node {
    input: "1169"
    output: "1170"
    name: "Cast_371"
    op_type: "Cast"
    attribute {
      name: "to"
      i: 1
      type: INT
    }
  }
  node {
    input: "1164"
    input: "1170"
    output: "1171"
    name: "Div_372"
    op_type: "Div"
  }
  node {
    input: "1163"
    input: "1171"
    output: "1172"
    name: "Concat_373"
    op_type: "Concat"
    attribute {
      name: "axis"
      i: 0
      type: INT
    }
  }
  node {
    input: "1153"
    input: "1172"
    output: "1173"
    name: "Resize_374"
    op_type: "Resize"
    attribute {
      name: "mode"
      s: "linear"
      type: STRING
    }
  }
  node {
    input: "1173"
    input: "1086"
    output: "1174"
    name: "Concat_375"
    op_type: "Concat"
    attribute {
      name: "axis"
      i: 1
      type: INT
    }
  }
  node {
    input: "1174"
    input: "stage3.rebnconv1d.conv_s1.weight"
    input: "stage3.rebnconv1d.conv_s1.bias"
    output: "1175"
    name: "Conv_376"
    op_type: "Conv"
    attribute {
      name: "dilations"
      ints: 1
      ints: 1
      type: INTS
    }
    attribute {
      name: "group"
      i: 1
      type: INT
    }
    attribute {
      name: "kernel_shape"
      ints: 3
      ints: 3
      type: INTS
    }
    attribute {
      name: "pads"
      ints: 1
      ints: 1
      ints: 1
      ints: 1
      type: INTS
    }
    attribute {
      name: "strides"
      ints: 1
      ints: 1
      type: INTS
    }
  }
  node {
    input: "1175"
    input: "stage3.rebnconv1d.bn_s1.weight"
    input: "stage3.rebnconv1d.bn_s1.bias"
    input: "stage3.rebnconv1d.bn_s1.running_mean"
    input: "stage3.rebnconv1d.bn_s1.running_var"
    output: "1176"
    name: "BatchNormalization_377"
    op_type: "BatchNormalization"
    attribute {
      name: "epsilon"
      f: 9.999999747378752e-06
      type: FLOAT
    }
    attribute {
      name: "momentum"
      f: 0.8999999761581421
      type: FLOAT
    }
  }
  node {
    input: "1176"
    output: "1177"
    name: "Relu_378"
    op_type: "Relu"
  }
  node {
    input: "1177"
    input: "1083"
    output: "1178"
    name: "Add_379"
    op_type: "Add"
  }
  node {
    input: "1178"
    output: "1179"
    name: "MaxPool_380"
    op_type: "MaxPool"
    attribute {
      name: "ceil_mode"
      i: 1
      type: INT
    }
    attribute {
      name: "kernel_shape"
      ints: 2
      ints: 2
      type: INTS
    }
    attribute {
      name: "pads"
      ints: 0
      ints: 0
      ints: 0
      ints: 0
      type: INTS
    }
    attribute {
      name: "strides"
      ints: 2
      ints: 2
      type: INTS
    }
  }
  node {
    input: "1179"
    input: "stage4.rebnconvin.conv_s1.weight"
    input: "stage4.rebnconvin.conv_s1.bias"
    output: "1180"
    name: "Conv_381"
    op_type: "Conv"
    attribute {
      name: "dilations"
      ints: 1
      ints: 1
      type: INTS
    }
    attribute {
      name: "group"
      i: 1
      type: INT
    }
    attribute {
      name: "kernel_shape"
      ints: 3
      ints: 3
      type: INTS
    }
    attribute {
      name: "pads"
      ints: 1
      ints: 1
      ints: 1
      ints: 1
      type: INTS
    }
    attribute {
      name: "strides"
      ints: 1
      ints: 1
      type: INTS
    }
  }
  node {
    input: "1180"
    input: "stage4.rebnconvin.bn_s1.weight"
    input: "stage4.rebnconvin.bn_s1.bias"
    input: "stage4.rebnconvin.bn_s1.running_mean"
    input: "stage4.rebnconvin.bn_s1.running_var"
    output: "1181"
    name: "BatchNormalization_382"
    op_type: "BatchNormalization"
    attribute {
      name: "epsilon"
      f: 9.999999747378752e-06
      type: FLOAT
    }
    attribute {
      name: "momentum"
      f: 0.8999999761581421
      type: FLOAT
    }
  }
  node {
    input: "1181"
    output: "1182"
    name: "Relu_383"
    op_type: "Relu"
  }
  node {
    input: "1182"
    input: "stage4.rebnconv1.conv_s1.weight"
    input: "stage4.rebnconv1.conv_s1.bias"
    output: "1183"
    name: "Conv_384"
    op_type: "Conv"
    attribute {
      name: "dilations"
      ints: 1
      ints: 1
      type: INTS
    }
    attribute {
      name: "group"
      i: 1
      type: INT
    }
    attribute {
      name: "kernel_shape"
      ints: 3
      ints: 3
      type: INTS
    }
    attribute {
      name: "pads"
      ints: 1
      ints: 1
      ints: 1
      ints: 1
      type: INTS
    }
    attribute {
      name: "strides"
      ints: 1
      ints: 1
      type: INTS
    }
  }
  node {
    input: "1183"
    input: "stage4.rebnconv1.bn_s1.weight"
    input: "stage4.rebnconv1.bn_s1.bias"
    input: "stage4.rebnconv1.bn_s1.running_mean"
    input: "stage4.rebnconv1.bn_s1.running_var"
    output: "1184"
    name: "BatchNormalization_385"
    op_type: "BatchNormalization"
    attribute {
      name: "epsilon"
      f: 9.999999747378752e-06
      type: FLOAT
    }
    attribute {
      name: "momentum"
      f: 0.8999999761581421
      type: FLOAT
    }
  }
  node {
    input: "1184"
    output: "1185"
    name: "Relu_386"
    op_type: "Relu"
  }
  node {
    input: "1185"
    output: "1186"
    name: "MaxPool_387"
    op_type: "MaxPool"
    attribute {
      name: "ceil_mode"
      i: 1
      type: INT
    }
    attribute {
      name: "kernel_shape"
      ints: 2
      ints: 2
      type: INTS
    }
    attribute {
      name: "pads"
      ints: 0
      ints: 0
      ints: 0
      ints: 0
      type: INTS
    }
    attribute {
      name: "strides"
      ints: 2
      ints: 2
      type: INTS
    }
  }
  node {
    input: "1186"
    input: "stage4.rebnconv2.conv_s1.weight"
    input: "stage4.rebnconv2.conv_s1.bias"
    output: "1187"
    name: "Conv_388"
    op_type: "Conv"
    attribute {
      name: "dilations"
      ints: 1
      ints: 1
      type: INTS
    }
    attribute {
      name: "group"
      i: 1
      type: INT
    }
    attribute {
      name: "kernel_shape"
      ints: 3
      ints: 3
      type: INTS
    }
    attribute {
      name: "pads"
      ints: 1
      ints: 1
      ints: 1
      ints: 1
      type: INTS
    }
    attribute {
      name: "strides"
      ints: 1
      ints: 1
      type: INTS
    }
  }
  node {
    input: "1187"
    input: "stage4.rebnconv2.bn_s1.weight"
    input: "stage4.rebnconv2.bn_s1.bias"
    input: "stage4.rebnconv2.bn_s1.running_mean"
    input: "stage4.rebnconv2.bn_s1.running_var"
    output: "1188"
    name: "BatchNormalization_389"
    op_type: "BatchNormalization"
    attribute {
      name: "epsilon"
      f: 9.999999747378752e-06
      type: FLOAT
    }
    attribute {
      name: "momentum"
      f: 0.8999999761581421
      type: FLOAT
    }
  }
  node {
    input: "1188"
    output: "1189"
    name: "Relu_390"
    op_type: "Relu"
  }
  node {
    input: "1189"
    output: "1190"
    name: "MaxPool_391"
    op_type: "MaxPool"
    attribute {
      name: "ceil_mode"
      i: 1
      type: INT
    }
    attribute {
      name: "kernel_shape"
      ints: 2
      ints: 2
      type: INTS
    }
    attribute {
      name: "pads"
      ints: 0
      ints: 0
      ints: 0
      ints: 0
      type: INTS
    }
    attribute {
      name: "strides"
      ints: 2
      ints: 2
      type: INTS
    }
  }
  node {
    input: "1190"
    input: "stage4.rebnconv3.conv_s1.weight"
    input: "stage4.rebnconv3.conv_s1.bias"
    output: "1191"
    name: "Conv_392"
    op_type: "Conv"
    attribute {
      name: "dilations"
      ints: 1
      ints: 1
      type: INTS
    }
    attribute {
      name: "group"
      i: 1
      type: INT
    }
    attribute {
      name: "kernel_shape"
      ints: 3
      ints: 3
      type: INTS
    }
    attribute {
      name: "pads"
      ints: 1
      ints: 1
      ints: 1
      ints: 1
      type: INTS
    }
    attribute {
      name: "strides"
      ints: 1
      ints: 1
      type: INTS
    }
  }
  node {
    input: "1191"
    input: "stage4.rebnconv3.bn_s1.weight"
    input: "stage4.rebnconv3.bn_s1.bias"
    input: "stage4.rebnconv3.bn_s1.running_mean"
    input: "stage4.rebnconv3.bn_s1.running_var"
    output: "1192"
    name: "BatchNormalization_393"
    op_type: "BatchNormalization"
    attribute {
      name: "epsilon"
      f: 9.999999747378752e-06
      type: FLOAT
    }
    attribute {
      name: "momentum"
      f: 0.8999999761581421
      type: FLOAT
    }
  }
  node {
    input: "1192"
    output: "1193"
    name: "Relu_394"
    op_type: "Relu"
  }
  node {
    input: "1193"
    input: "stage4.rebnconv4.conv_s1.weight"
    input: "stage4.rebnconv4.conv_s1.bias"
    output: "1194"
    name: "Conv_395"
    op_type: "Conv"
    attribute {
      name: "dilations"
      ints: 2
      ints: 2
      type: INTS
    }
    attribute {
      name: "group"
      i: 1
      type: INT
    }
    attribute {
      name: "kernel_shape"
      ints: 3
      ints: 3
      type: INTS
    }
    attribute {
      name: "pads"
      ints: 2
      ints: 2
      ints: 2
      ints: 2
      type: INTS
    }
    attribute {
      name: "strides"
      ints: 1
      ints: 1
      type: INTS
    }
  }
  node {
    input: "1194"
    input: "stage4.rebnconv4.bn_s1.weight"
    input: "stage4.rebnconv4.bn_s1.bias"
    input: "stage4.rebnconv4.bn_s1.running_mean"
    input: "stage4.rebnconv4.bn_s1.running_var"
    output: "1195"
    name: "BatchNormalization_396"
    op_type: "BatchNormalization"
    attribute {
      name: "epsilon"
      f: 9.999999747378752e-06
      type: FLOAT
    }
    attribute {
      name: "momentum"
      f: 0.8999999761581421
      type: FLOAT
    }
  }
  node {
    input: "1195"
    output: "1196"
    name: "Relu_397"
    op_type: "Relu"
  }
  node {
    input: "1196"
    input: "1193"
    output: "1197"
    name: "Concat_398"
    op_type: "Concat"
    attribute {
      name: "axis"
      i: 1
      type: INT
    }
  }
  node {
    input: "1197"
    input: "stage4.rebnconv3d.conv_s1.weight"
    input: "stage4.rebnconv3d.conv_s1.bias"
    output: "1198"
    name: "Conv_399"
    op_type: "Conv"
    attribute {
      name: "dilations"
      ints: 1
      ints: 1
      type: INTS
    }
    attribute {
      name: "group"
      i: 1
      type: INT
    }
    attribute {
      name: "kernel_shape"
      ints: 3
      ints: 3
      type: INTS
    }
    attribute {
      name: "pads"
      ints: 1
      ints: 1
      ints: 1
      ints: 1
      type: INTS
    }
    attribute {
      name: "strides"
      ints: 1
      ints: 1
      type: INTS
    }
  }
  node {
    input: "1198"
    input: "stage4.rebnconv3d.bn_s1.weight"
    input: "stage4.rebnconv3d.bn_s1.bias"
    input: "stage4.rebnconv3d.bn_s1.running_mean"
    input: "stage4.rebnconv3d.bn_s1.running_var"
    output: "1199"
    name: "BatchNormalization_400"
    op_type: "BatchNormalization"
    attribute {
      name: "epsilon"
      f: 9.999999747378752e-06
      type: FLOAT
    }
    attribute {
      name: "momentum"
      f: 0.8999999761581421
      type: FLOAT
    }
  }
  node {
    input: "1199"
    output: "1200"
    name: "Relu_401"
    op_type: "Relu"
  }
  node {
    input: "1189"
    output: "1201"
    name: "Shape_402"
    op_type: "Shape"
  }
  node {
    output: "1202"
    name: "Constant_403"
    op_type: "Constant"
    attribute {
      name: "value"
      t {
        data_type: 7
      }
      type: TENSOR
    }
  }
  node {
    input: "1201"
    input: "1202"
    output: "1203"
    name: "Gather_404"
    op_type: "Gather"
    attribute {
      name: "axis"
      i: 0
      type: INT
    }
  }
  node {
    input: "1189"
    output: "1204"
    name: "Shape_405"
    op_type: "Shape"
  }
  node {
    output: "1205"
    name: "Constant_406"
    op_type: "Constant"
    attribute {
      name: "value"
      t {
        data_type: 7
      }
      type: TENSOR
    }
  }
  node {
    input: "1204"
    input: "1205"
    output: "1206"
    name: "Gather_407"
    op_type: "Gather"
    attribute {
      name: "axis"
      i: 0
      type: INT
    }
  }
  node {
    input: "1203"
    output: "1207"
    name: "Unsqueeze_408"
    op_type: "Unsqueeze"
    attribute {
      name: "axes"
      ints: 0
      type: INTS
    }
  }
  node {
    input: "1206"
    output: "1208"
    name: "Unsqueeze_409"
    op_type: "Unsqueeze"
    attribute {
      name: "axes"
      ints: 0
      type: INTS
    }
  }
  node {
    input: "1207"
    input: "1208"
    output: "1209"
    name: "Concat_410"
    op_type: "Concat"
    attribute {
      name: "axis"
      i: 0
      type: INT
    }
  }
  node {
    output: "1210"
    name: "Constant_411"
    op_type: "Constant"
    attribute {
      name: "value"
      t {
        dims: 2
        data_type: 1
      }
      type: TENSOR
    }
  }
  node {
    input: "1209"
    output: "1211"
    name: "Cast_412"
    op_type: "Cast"
    attribute {
      name: "to"
      i: 1
      type: INT
    }
  }
  node {
    input: "1200"
    output: "1212"
    name: "Shape_413"
    op_type: "Shape"
  }
  node {
    output: "1213"
    name: "Constant_414"
    op_type: "Constant"
    attribute {
      name: "value"
      t {
        dims: 1
        data_type: 7
      }
      type: TENSOR
    }
  }
  node {
    output: "1214"
    name: "Constant_415"
    op_type: "Constant"
    attribute {
      name: "value"
      t {
        dims: 1
        data_type: 7
      }
      type: TENSOR
    }
  }
  node {
    output: "1215"
    name: "Constant_416"
    op_type: "Constant"
    attribute {
      name: "value"
      t {
        dims: 1
        data_type: 7
      }
      type: TENSOR
    }
  }
  node {
    input: "1212"
    input: "1214"
    input: "1215"
    input: "1213"
    output: "1216"
    name: "Slice_417"
    op_type: "Slice"
  }
  node {
    input: "1216"
    output: "1217"
    name: "Cast_418"
    op_type: "Cast"
    attribute {
      name: "to"
      i: 1
      type: INT
    }
  }
  node {
    input: "1211"
    input: "1217"
    output: "1218"
    name: "Div_419"
    op_type: "Div"
  }
  node {
    input: "1210"
    input: "1218"
    output: "1219"
    name: "Concat_420"
    op_type: "Concat"
    attribute {
      name: "axis"
      i: 0
      type: INT
    }
  }
  node {
    input: "1200"
    input: "1219"
    output: "1220"
    name: "Resize_421"
    op_type: "Resize"
    attribute {
      name: "mode"
      s: "linear"
      type: STRING
    }
  }
  node {
    input: "1220"
    input: "1189"
    output: "1221"
    name: "Concat_422"
    op_type: "Concat"
    attribute {
      name: "axis"
      i: 1
      type: INT
    }
  }
  node {
    input: "1221"
    input: "stage4.rebnconv2d.conv_s1.weight"
    input: "stage4.rebnconv2d.conv_s1.bias"
    output: "1222"
    name: "Conv_423"
    op_type: "Conv"
    attribute {
      name: "dilations"
      ints: 1
      ints: 1
      type: INTS
    }
    attribute {
      name: "group"
      i: 1
      type: INT
    }
    attribute {
      name: "kernel_shape"
      ints: 3
      ints: 3
      type: INTS
    }
    attribute {
      name: "pads"
      ints: 1
      ints: 1
      ints: 1
      ints: 1
      type: INTS
    }
    attribute {
      name: "strides"
      ints: 1
      ints: 1
      type: INTS
    }
  }
  node {
    input: "1222"
    input: "stage4.rebnconv2d.bn_s1.weight"
    input: "stage4.rebnconv2d.bn_s1.bias"
    input: "stage4.rebnconv2d.bn_s1.running_mean"
    input: "stage4.rebnconv2d.bn_s1.running_var"
    output: "1223"
    name: "BatchNormalization_424"
    op_type: "BatchNormalization"
    attribute {
      name: "epsilon"
      f: 9.999999747378752e-06
      type: FLOAT
    }
    attribute {
      name: "momentum"
      f: 0.8999999761581421
      type: FLOAT
    }
  }
  node {
    input: "1223"
    output: "1224"
    name: "Relu_425"
    op_type: "Relu"
  }
  node {
    input: "1185"
    output: "1225"
    name: "Shape_426"
    op_type: "Shape"
  }
  node {
    output: "1226"
    name: "Constant_427"
    op_type: "Constant"
    attribute {
      name: "value"
      t {
        data_type: 7
      }
      type: TENSOR
    }
  }
  node {
    input: "1225"
    input: "1226"
    output: "1227"
    name: "Gather_428"
    op_type: "Gather"
    attribute {
      name: "axis"
      i: 0
      type: INT
    }
  }
  node {
    input: "1185"
    output: "1228"
    name: "Shape_429"
    op_type: "Shape"
  }
  node {
    output: "1229"
    name: "Constant_430"
    op_type: "Constant"
    attribute {
      name: "value"
      t {
        data_type: 7
      }
      type: TENSOR
    }
  }
  node {
    input: "1228"
    input: "1229"
    output: "1230"
    name: "Gather_431"
    op_type: "Gather"
    attribute {
      name: "axis"
      i: 0
      type: INT
    }
  }
  node {
    input: "1227"
    output: "1231"
    name: "Unsqueeze_432"
    op_type: "Unsqueeze"
    attribute {
      name: "axes"
      ints: 0
      type: INTS
    }
  }
  node {
    input: "1230"
    output: "1232"
    name: "Unsqueeze_433"
    op_type: "Unsqueeze"
    attribute {
      name: "axes"
      ints: 0
      type: INTS
    }
  }
  node {
    input: "1231"
    input: "1232"
    output: "1233"
    name: "Concat_434"
    op_type: "Concat"
    attribute {
      name: "axis"
      i: 0
      type: INT
    }
  }
  node {
    output: "1234"
    name: "Constant_435"
    op_type: "Constant"
    attribute {
      name: "value"
      t {
        dims: 2
        data_type: 1
      }
      type: TENSOR
    }
  }
  node {
    input: "1233"
    output: "1235"
    name: "Cast_436"
    op_type: "Cast"
    attribute {
      name: "to"
      i: 1
      type: INT
    }
  }
  node {
    input: "1224"
    output: "1236"
    name: "Shape_437"
    op_type: "Shape"
  }
  node {
    output: "1237"
    name: "Constant_438"
    op_type: "Constant"
    attribute {
      name: "value"
      t {
        dims: 1
        data_type: 7
      }
      type: TENSOR
    }
  }
  node {
    output: "1238"
    name: "Constant_439"
    op_type: "Constant"
    attribute {
      name: "value"
      t {
        dims: 1
        data_type: 7
      }
      type: TENSOR
    }
  }
  node {
    output: "1239"
    name: "Constant_440"
    op_type: "Constant"
    attribute {
      name: "value"
      t {
        dims: 1
        data_type: 7
      }
      type: TENSOR
    }
  }
  node {
    input: "1236"
    input: "1238"
    input: "1239"
    input: "1237"
    output: "1240"
    name: "Slice_441"
    op_type: "Slice"
  }
  node {
    input: "1240"
    output: "1241"
    name: "Cast_442"
    op_type: "Cast"
    attribute {
      name: "to"
      i: 1
      type: INT
    }
  }
  node {
    input: "1235"
    input: "1241"
    output: "1242"
    name: "Div_443"
    op_type: "Div"
  }
  node {
    input: "1234"
    input: "1242"
    output: "1243"
    name: "Concat_444"
    op_type: "Concat"
    attribute {
      name: "axis"
      i: 0
      type: INT
    }
  }
  node {
    input: "1224"
    input: "1243"
    output: "1244"
    name: "Resize_445"
    op_type: "Resize"
    attribute {
      name: "mode"
      s: "linear"
      type: STRING
    }
  }
  node {
    input: "1244"
    input: "1185"
    output: "1245"
    name: "Concat_446"
    op_type: "Concat"
    attribute {
      name: "axis"
      i: 1
      type: INT
    }
  }
  node {
    input: "1245"
    input: "stage4.rebnconv1d.conv_s1.weight"
    input: "stage4.rebnconv1d.conv_s1.bias"
    output: "1246"
    name: "Conv_447"
    op_type: "Conv"
    attribute {
      name: "dilations"
      ints: 1
      ints: 1
      type: INTS
    }
    attribute {
      name: "group"
      i: 1
      type: INT
    }
    attribute {
      name: "kernel_shape"
      ints: 3
      ints: 3
      type: INTS
    }
    attribute {
      name: "pads"
      ints: 1
      ints: 1
      ints: 1
      ints: 1
      type: INTS
    }
    attribute {
      name: "strides"
      ints: 1
      ints: 1
      type: INTS
    }
  }
  node {
    input: "1246"
    input: "stage4.rebnconv1d.bn_s1.weight"
    input: "stage4.rebnconv1d.bn_s1.bias"
    input: "stage4.rebnconv1d.bn_s1.running_mean"
    input: "stage4.rebnconv1d.bn_s1.running_var"
    output: "1247"
    name: "BatchNormalization_448"
    op_type: "BatchNormalization"
    attribute {
      name: "epsilon"
      f: 9.999999747378752e-06
      type: FLOAT
    }
    attribute {
      name: "momentum"
      f: 0.8999999761581421
      type: FLOAT
    }
  }
  node {
    input: "1247"
    output: "1248"
    name: "Relu_449"
    op_type: "Relu"
  }
  node {
    input: "1248"
    input: "1182"
    output: "1249"
    name: "Add_450"
    op_type: "Add"
  }
  node {
    input: "1249"
    output: "1250"
    name: "MaxPool_451"
    op_type: "MaxPool"
    attribute {
      name: "ceil_mode"
      i: 1
      type: INT
    }
    attribute {
      name: "kernel_shape"
      ints: 2
      ints: 2
      type: INTS
    }
    attribute {
      name: "pads"
      ints: 0
      ints: 0
      ints: 0
      ints: 0
      type: INTS
    }
    attribute {
      name: "strides"
      ints: 2
      ints: 2
      type: INTS
    }
  }
  node {
    input: "1250"
    input: "stage5.rebnconvin.conv_s1.weight"
    input: "stage5.rebnconvin.conv_s1.bias"
    output: "1251"
    name: "Conv_452"
    op_type: "Conv"
    attribute {
      name: "dilations"
      ints: 1
      ints: 1
      type: INTS
    }
    attribute {
      name: "group"
      i: 1
      type: INT
    }
    attribute {
      name: "kernel_shape"
      ints: 3
      ints: 3
      type: INTS
    }
    attribute {
      name: "pads"
      ints: 1
      ints: 1
      ints: 1
      ints: 1
      type: INTS
    }
    attribute {
      name: "strides"
      ints: 1
      ints: 1
      type: INTS
    }
  }
  node {
    input: "1251"
    input: "stage5.rebnconvin.bn_s1.weight"
    input: "stage5.rebnconvin.bn_s1.bias"
    input: "stage5.rebnconvin.bn_s1.running_mean"
    input: "stage5.rebnconvin.bn_s1.running_var"
    output: "1252"
    name: "BatchNormalization_453"
    op_type: "BatchNormalization"
    attribute {
      name: "epsilon"
      f: 9.999999747378752e-06
      type: FLOAT
    }
    attribute {
      name: "momentum"
      f: 0.8999999761581421
      type: FLOAT
    }
  }
  node {
    input: "1252"
    output: "1253"
    name: "Relu_454"
    op_type: "Relu"
  }
  node {
    input: "1253"
    input: "stage5.rebnconv1.conv_s1.weight"
    input: "stage5.rebnconv1.conv_s1.bias"
    output: "1254"
    name: "Conv_455"
    op_type: "Conv"
    attribute {
      name: "dilations"
      ints: 1
      ints: 1
      type: INTS
    }
    attribute {
      name: "group"
      i: 1
      type: INT
    }
    attribute {
      name: "kernel_shape"
      ints: 3
      ints: 3
      type: INTS
    }
    attribute {
      name: "pads"
      ints: 1
      ints: 1
      ints: 1
      ints: 1
      type: INTS
    }
    attribute {
      name: "strides"
      ints: 1
      ints: 1
      type: INTS
    }
  }
  node {
    input: "1254"
    input: "stage5.rebnconv1.bn_s1.weight"
    input: "stage5.rebnconv1.bn_s1.bias"
    input: "stage5.rebnconv1.bn_s1.running_mean"
    input: "stage5.rebnconv1.bn_s1.running_var"
    output: "1255"
    name: "BatchNormalization_456"
    op_type: "BatchNormalization"
    attribute {
      name: "epsilon"
      f: 9.999999747378752e-06
      type: FLOAT
    }
    attribute {
      name: "momentum"
      f: 0.8999999761581421
      type: FLOAT
    }
  }
  node {
    input: "1255"
    output: "1256"
    name: "Relu_457"
    op_type: "Relu"
  }
  node {
    input: "1256"
    input: "stage5.rebnconv2.conv_s1.weight"
    input: "stage5.rebnconv2.conv_s1.bias"
    output: "1257"
    name: "Conv_458"
    op_type: "Conv"
    attribute {
      name: "dilations"
      ints: 2
      ints: 2
      type: INTS
    }
    attribute {
      name: "group"
      i: 1
      type: INT
    }
    attribute {
      name: "kernel_shape"
      ints: 3
      ints: 3
      type: INTS
    }
    attribute {
      name: "pads"
      ints: 2
      ints: 2
      ints: 2
      ints: 2
      type: INTS
    }
    attribute {
      name: "strides"
      ints: 1
      ints: 1
      type: INTS
    }
  }
  node {
    input: "1257"
    input: "stage5.rebnconv2.bn_s1.weight"
    input: "stage5.rebnconv2.bn_s1.bias"
    input: "stage5.rebnconv2.bn_s1.running_mean"
    input: "stage5.rebnconv2.bn_s1.running_var"
    output: "1258"
    name: "BatchNormalization_459"
    op_type: "BatchNormalization"
    attribute {
      name: "epsilon"
      f: 9.999999747378752e-06
      type: FLOAT
    }
    attribute {
      name: "momentum"
      f: 0.8999999761581421
      type: FLOAT
    }
  }
  node {
    input: "1258"
    output: "1259"
    name: "Relu_460"
    op_type: "Relu"
  }
  node {
    input: "1259"
    input: "stage5.rebnconv3.conv_s1.weight"
    input: "stage5.rebnconv3.conv_s1.bias"
    output: "1260"
    name: "Conv_461"
    op_type: "Conv"
    attribute {
      name: "dilations"
      ints: 4
      ints: 4
      type: INTS
    }
    attribute {
      name: "group"
      i: 1
      type: INT
    }
    attribute {
      name: "kernel_shape"
      ints: 3
      ints: 3
      type: INTS
    }
    attribute {
      name: "pads"
      ints: 4
      ints: 4
      ints: 4
      ints: 4
      type: INTS
    }
    attribute {
      name: "strides"
      ints: 1
      ints: 1
      type: INTS
    }
  }
  node {
    input: "1260"
    input: "stage5.rebnconv3.bn_s1.weight"
    input: "stage5.rebnconv3.bn_s1.bias"
    input: "stage5.rebnconv3.bn_s1.running_mean"
    input: "stage5.rebnconv3.bn_s1.running_var"
    output: "1261"
    name: "BatchNormalization_462"
    op_type: "BatchNormalization"
    attribute {
      name: "epsilon"
      f: 9.999999747378752e-06
      type: FLOAT
    }
    attribute {
      name: "momentum"
      f: 0.8999999761581421
      type: FLOAT
    }
  }
  node {
    input: "1261"
    output: "1262"
    name: "Relu_463"
    op_type: "Relu"
  }
  node {
    input: "1262"
    input: "stage5.rebnconv4.conv_s1.weight"
    input: "stage5.rebnconv4.conv_s1.bias"
    output: "1263"
    name: "Conv_464"
    op_type: "Conv"
    attribute {
      name: "dilations"
      ints: 8
      ints: 8
      type: INTS
    }
    attribute {
      name: "group"
      i: 1
      type: INT
    }
    attribute {
      name: "kernel_shape"
      ints: 3
      ints: 3
      type: INTS
    }
    attribute {
      name: "pads"
      ints: 8
      ints: 8
      ints: 8
      ints: 8
      type: INTS
    }
    attribute {
      name: "strides"
      ints: 1
      ints: 1
      type: INTS
    }
  }
  node {
    input: "1263"
    input: "stage5.rebnconv4.bn_s1.weight"
    input: "stage5.rebnconv4.bn_s1.bias"
    input: "stage5.rebnconv4.bn_s1.running_mean"
    input: "stage5.rebnconv4.bn_s1.running_var"
    output: "1264"
    name: "BatchNormalization_465"
    op_type: "BatchNormalization"
    attribute {
      name: "epsilon"
      f: 9.999999747378752e-06
      type: FLOAT
    }
    attribute {
      name: "momentum"
      f: 0.8999999761581421
      type: FLOAT
    }
  }
  node {
    input: "1264"
    output: "1265"
    name: "Relu_466"
    op_type: "Relu"
  }
  node {
    input: "1265"
    input: "1262"
    output: "1266"
    name: "Concat_467"
    op_type: "Concat"
    attribute {
      name: "axis"
      i: 1
      type: INT
    }
  }
  node {
    input: "1266"
    input: "stage5.rebnconv3d.conv_s1.weight"
    input: "stage5.rebnconv3d.conv_s1.bias"
    output: "1267"
    name: "Conv_468"
    op_type: "Conv"
    attribute {
      name: "dilations"
      ints: 4
      ints: 4
      type: INTS
    }
    attribute {
      name: "group"
      i: 1
      type: INT
    }
    attribute {
      name: "kernel_shape"
      ints: 3
      ints: 3
      type: INTS
    }
    attribute {
      name: "pads"
      ints: 4
      ints: 4
      ints: 4
      ints: 4
      type: INTS
    }
    attribute {
      name: "strides"
      ints: 1
      ints: 1
      type: INTS
    }
  }
  node {
    input: "1267"
    input: "stage5.rebnconv3d.bn_s1.weight"
    input: "stage5.rebnconv3d.bn_s1.bias"
    input: "stage5.rebnconv3d.bn_s1.running_mean"
    input: "stage5.rebnconv3d.bn_s1.running_var"
    output: "1268"
    name: "BatchNormalization_469"
    op_type: "BatchNormalization"
    attribute {
      name: "epsilon"
      f: 9.999999747378752e-06
      type: FLOAT
    }
    attribute {
      name: "momentum"
      f: 0.8999999761581421
      type: FLOAT
    }
  }
  node {
    input: "1268"
    output: "1269"
    name: "Relu_470"
    op_type: "Relu"
  }
  node {
    input: "1269"
    input: "1259"
    output: "1270"
    name: "Concat_471"
    op_type: "Concat"
    attribute {
      name: "axis"
      i: 1
      type: INT
    }
  }
  node {
    input: "1270"
    input: "stage5.rebnconv2d.conv_s1.weight"
    input: "stage5.rebnconv2d.conv_s1.bias"
    output: "1271"
    name: "Conv_472"
    op_type: "Conv"
    attribute {
      name: "dilations"
      ints: 2
      ints: 2
      type: INTS
    }
    attribute {
      name: "group"
      i: 1
      type: INT
    }
    attribute {
      name: "kernel_shape"
      ints: 3
      ints: 3
      type: INTS
    }
    attribute {
      name: "pads"
      ints: 2
      ints: 2
      ints: 2
      ints: 2
      type: INTS
    }
    attribute {
      name: "strides"
      ints: 1
      ints: 1
      type: INTS
    }
  }
  node {
    input: "1271"
    input: "stage5.rebnconv2d.bn_s1.weight"
    input: "stage5.rebnconv2d.bn_s1.bias"
    input: "stage5.rebnconv2d.bn_s1.running_mean"
    input: "stage5.rebnconv2d.bn_s1.running_var"
    output: "1272"
    name: "BatchNormalization_473"
    op_type: "BatchNormalization"
    attribute {
      name: "epsilon"
      f: 9.999999747378752e-06
      type: FLOAT
    }
    attribute {
      name: "momentum"
      f: 0.8999999761581421
      type: FLOAT
    }
  }
  node {
    input: "1272"
    output: "1273"
    name: "Relu_474"
    op_type: "Relu"
  }
  node {
    input: "1273"
    input: "1256"
    output: "1274"
    name: "Concat_475"
    op_type: "Concat"
    attribute {
      name: "axis"
      i: 1
      type: INT
    }
  }
  node {
    input: "1274"
    input: "stage5.rebnconv1d.conv_s1.weight"
    input: "stage5.rebnconv1d.conv_s1.bias"
    output: "1275"
    name: "Conv_476"
    op_type: "Conv"
    attribute {
      name: "dilations"
      ints: 1
      ints: 1
      type: INTS
    }
    attribute {
      name: "group"
      i: 1
      type: INT
    }
    attribute {
      name: "kernel_shape"
      ints: 3
      ints: 3
      type: INTS
    }
    attribute {
      name: "pads"
      ints: 1
      ints: 1
      ints: 1
      ints: 1
      type: INTS
    }
    attribute {
      name: "strides"
      ints: 1
      ints: 1
      type: INTS
    }
  }
  node {
    input: "1275"
    input: "stage5.rebnconv1d.bn_s1.weight"
    input: "stage5.rebnconv1d.bn_s1.bias"
    input: "stage5.rebnconv1d.bn_s1.running_mean"
    input: "stage5.rebnconv1d.bn_s1.running_var"
    output: "1276"
    name: "BatchNormalization_477"
    op_type: "BatchNormalization"
    attribute {
      name: "epsilon"
      f: 9.999999747378752e-06
      type: FLOAT
    }
    attribute {
      name: "momentum"
      f: 0.8999999761581421
      type: FLOAT
    }
  }
  node {
    input: "1276"
    output: "1277"
    name: "Relu_478"
    op_type: "Relu"
  }
  node {
    input: "1277"
    input: "1253"
    output: "1278"
    name: "Add_479"
    op_type: "Add"
  }
  node {
    input: "1278"
    output: "1279"
    name: "MaxPool_480"
    op_type: "MaxPool"
    attribute {
      name: "ceil_mode"
      i: 1
      type: INT
    }
    attribute {
      name: "kernel_shape"
      ints: 2
      ints: 2
      type: INTS
    }
    attribute {
      name: "pads"
      ints: 0
      ints: 0
      ints: 0
      ints: 0
      type: INTS
    }
    attribute {
      name: "strides"
      ints: 2
      ints: 2
      type: INTS
    }
  }
  node {
    input: "1279"
    input: "stage6.rebnconvin.conv_s1.weight"
    input: "stage6.rebnconvin.conv_s1.bias"
    output: "1280"
    name: "Conv_481"
    op_type: "Conv"
    attribute {
      name: "dilations"
      ints: 1
      ints: 1
      type: INTS
    }
    attribute {
      name: "group"
      i: 1
      type: INT
    }
    attribute {
      name: "kernel_shape"
      ints: 3
      ints: 3
      type: INTS
    }
    attribute {
      name: "pads"
      ints: 1
      ints: 1
      ints: 1
      ints: 1
      type: INTS
    }
    attribute {
      name: "strides"
      ints: 1
      ints: 1
      type: INTS
    }
  }
  node {
    input: "1280"
    input: "stage6.rebnconvin.bn_s1.weight"
    input: "stage6.rebnconvin.bn_s1.bias"
    input: "stage6.rebnconvin.bn_s1.running_mean"
    input: "stage6.rebnconvin.bn_s1.running_var"
    output: "1281"
    name: "BatchNormalization_482"
    op_type: "BatchNormalization"
    attribute {
      name: "epsilon"
      f: 9.999999747378752e-06
      type: FLOAT
    }
    attribute {
      name: "momentum"
      f: 0.8999999761581421
      type: FLOAT
    }
  }
  node {
    input: "1281"
    output: "1282"
    name: "Relu_483"
    op_type: "Relu"
  }
  node {
    input: "1282"
    input: "stage6.rebnconv1.conv_s1.weight"
    input: "stage6.rebnconv1.conv_s1.bias"
    output: "1283"
    name: "Conv_484"
    op_type: "Conv"
    attribute {
      name: "dilations"
      ints: 1
      ints: 1
      type: INTS
    }
    attribute {
      name: "group"
      i: 1
      type: INT
    }
    attribute {
      name: "kernel_shape"
      ints: 3
      ints: 3
      type: INTS
    }
    attribute {
      name: "pads"
      ints: 1
      ints: 1
      ints: 1
      ints: 1
      type: INTS
    }
    attribute {
      name: "strides"
      ints: 1
      ints: 1
      type: INTS
    }
  }
  node {
    input: "1283"
    input: "stage6.rebnconv1.bn_s1.weight"
    input: "stage6.rebnconv1.bn_s1.bias"
    input: "stage6.rebnconv1.bn_s1.running_mean"
    input: "stage6.rebnconv1.bn_s1.running_var"
    output: "1284"
    name: "BatchNormalization_485"
    op_type: "BatchNormalization"
    attribute {
      name: "epsilon"
      f: 9.999999747378752e-06
      type: FLOAT
    }
    attribute {
      name: "momentum"
      f: 0.8999999761581421
      type: FLOAT
    }
  }
  node {
    input: "1284"
    output: "1285"
    name: "Relu_486"
    op_type: "Relu"
  }
  node {
    input: "1285"
    input: "stage6.rebnconv2.conv_s1.weight"
    input: "stage6.rebnconv2.conv_s1.bias"
    output: "1286"
    name: "Conv_487"
    op_type: "Conv"
    attribute {
      name: "dilations"
      ints: 2
      ints: 2
      type: INTS
    }
    attribute {
      name: "group"
      i: 1
      type: INT
    }
    attribute {
      name: "kernel_shape"
      ints: 3
      ints: 3
      type: INTS
    }
    attribute {
      name: "pads"
      ints: 2
      ints: 2
      ints: 2
      ints: 2
      type: INTS
    }
    attribute {
      name: "strides"
      ints: 1
      ints: 1
      type: INTS
    }
  }
  node {
    input: "1286"
    input: "stage6.rebnconv2.bn_s1.weight"
    input: "stage6.rebnconv2.bn_s1.bias"
    input: "stage6.rebnconv2.bn_s1.running_mean"
    input: "stage6.rebnconv2.bn_s1.running_var"
    output: "1287"
    name: "BatchNormalization_488"
    op_type: "BatchNormalization"
    attribute {
      name: "epsilon"
      f: 9.999999747378752e-06
      type: FLOAT
    }
    attribute {
      name: "momentum"
      f: 0.8999999761581421
      type: FLOAT
    }
  }
  node {
    input: "1287"
    output: "1288"
    name: "Relu_489"
    op_type: "Relu"
  }
  node {
    input: "1288"
    input: "stage6.rebnconv3.conv_s1.weight"
    input: "stage6.rebnconv3.conv_s1.bias"
    output: "1289"
    name: "Conv_490"
    op_type: "Conv"
    attribute {
      name: "dilations"
      ints: 4
      ints: 4
      type: INTS
    }
    attribute {
      name: "group"
      i: 1
      type: INT
    }
    attribute {
      name: "kernel_shape"
      ints: 3
      ints: 3
      type: INTS
    }
    attribute {
      name: "pads"
      ints: 4
      ints: 4
      ints: 4
      ints: 4
      type: INTS
    }
    attribute {
      name: "strides"
      ints: 1
      ints: 1
      type: INTS
    }
  }
  node {
    input: "1289"
    input: "stage6.rebnconv3.bn_s1.weight"
    input: "stage6.rebnconv3.bn_s1.bias"
    input: "stage6.rebnconv3.bn_s1.running_mean"
    input: "stage6.rebnconv3.bn_s1.running_var"
    output: "1290"
    name: "BatchNormalization_491"
    op_type: "BatchNormalization"
    attribute {
      name: "epsilon"
      f: 9.999999747378752e-06
      type: FLOAT
    }
    attribute {
      name: "momentum"
      f: 0.8999999761581421
      type: FLOAT
    }
  }
  node {
    input: "1290"
    output: "1291"
    name: "Relu_492"
    op_type: "Relu"
  }
  node {
    input: "1291"
    input: "stage6.rebnconv4.conv_s1.weight"
    input: "stage6.rebnconv4.conv_s1.bias"
    output: "1292"
    name: "Conv_493"
    op_type: "Conv"
    attribute {
      name: "dilations"
      ints: 8
      ints: 8
      type: INTS
    }
    attribute {
      name: "group"
      i: 1
      type: INT
    }
    attribute {
      name: "kernel_shape"
      ints: 3
      ints: 3
      type: INTS
    }
    attribute {
      name: "pads"
      ints: 8
      ints: 8
      ints: 8
      ints: 8
      type: INTS
    }
    attribute {
      name: "strides"
      ints: 1
      ints: 1
      type: INTS
    }
  }
  node {
    input: "1292"
    input: "stage6.rebnconv4.bn_s1.weight"
    input: "stage6.rebnconv4.bn_s1.bias"
    input: "stage6.rebnconv4.bn_s1.running_mean"
    input: "stage6.rebnconv4.bn_s1.running_var"
    output: "1293"
    name: "BatchNormalization_494"
    op_type: "BatchNormalization"
    attribute {
      name: "epsilon"
      f: 9.999999747378752e-06
      type: FLOAT
    }
    attribute {
      name: "momentum"
      f: 0.8999999761581421
      type: FLOAT
    }
  }
  node {
    input: "1293"
    output: "1294"
    name: "Relu_495"
    op_type: "Relu"
  }
  node {
    input: "1294"
    input: "1291"
    output: "1295"
    name: "Concat_496"
    op_type: "Concat"
    attribute {
      name: "axis"
      i: 1
      type: INT
    }
  }
  node {
    input: "1295"
    input: "stage6.rebnconv3d.conv_s1.weight"
    input: "stage6.rebnconv3d.conv_s1.bias"
    output: "1296"
    name: "Conv_497"
    op_type: "Conv"
    attribute {
      name: "dilations"
      ints: 4
      ints: 4
      type: INTS
    }
    attribute {
      name: "group"
      i: 1
      type: INT
    }
    attribute {
      name: "kernel_shape"
      ints: 3
      ints: 3
      type: INTS
    }
    attribute {
      name: "pads"
      ints: 4
      ints: 4
      ints: 4
      ints: 4
      type: INTS
    }
    attribute {
      name: "strides"
      ints: 1
      ints: 1
      type: INTS
    }
  }
  node {
    input: "1296"
    input: "stage6.rebnconv3d.bn_s1.weight"
    input: "stage6.rebnconv3d.bn_s1.bias"
    input: "stage6.rebnconv3d.bn_s1.running_mean"
    input: "stage6.rebnconv3d.bn_s1.running_var"
    output: "1297"
    name: "BatchNormalization_498"
    op_type: "BatchNormalization"
    attribute {
      name: "epsilon"
      f: 9.999999747378752e-06
      type: FLOAT
    }
    attribute {
      name: "momentum"
      f: 0.8999999761581421
      type: FLOAT
    }
  }
  node {
    input: "1297"
    output: "1298"
    name: "Relu_499"
    op_type: "Relu"
  }
  node {
    input: "1298"
    input: "1288"
    output: "1299"
    name: "Concat_500"
    op_type: "Concat"
    attribute {
      name: "axis"
      i: 1
      type: INT
    }
  }
  node {
    input: "1299"
    input: "stage6.rebnconv2d.conv_s1.weight"
    input: "stage6.rebnconv2d.conv_s1.bias"
    output: "1300"
    name: "Conv_501"
    op_type: "Conv"
    attribute {
      name: "dilations"
      ints: 2
      ints: 2
      type: INTS
    }
    attribute {
      name: "group"
      i: 1
      type: INT
    }
    attribute {
      name: "kernel_shape"
      ints: 3
      ints: 3
      type: INTS
    }
    attribute {
      name: "pads"
      ints: 2
      ints: 2
      ints: 2
      ints: 2
      type: INTS
    }
    attribute {
      name: "strides"
      ints: 1
      ints: 1
      type: INTS
    }
  }
  node {
    input: "1300"
    input: "stage6.rebnconv2d.bn_s1.weight"
    input: "stage6.rebnconv2d.bn_s1.bias"
    input: "stage6.rebnconv2d.bn_s1.running_mean"
    input: "stage6.rebnconv2d.bn_s1.running_var"
    output: "1301"
    name: "BatchNormalization_502"
    op_type: "BatchNormalization"
    attribute {
      name: "epsilon"
      f: 9.999999747378752e-06
      type: FLOAT
    }
    attribute {
      name: "momentum"
      f: 0.8999999761581421
      type: FLOAT
    }
  }
  node {
    input: "1301"
    output: "1302"
    name: "Relu_503"
    op_type: "Relu"
  }
  node {
    input: "1302"
    input: "1285"
    output: "1303"
    name: "Concat_504"
    op_type: "Concat"
    attribute {
      name: "axis"
      i: 1
      type: INT
    }
  }
  node {
    input: "1303"
    input: "stage6.rebnconv1d.conv_s1.weight"
    input: "stage6.rebnconv1d.conv_s1.bias"
    output: "1304"
    name: "Conv_505"
    op_type: "Conv"
    attribute {
      name: "dilations"
      ints: 1
      ints: 1
      type: INTS
    }
    attribute {
      name: "group"
      i: 1
      type: INT
    }
    attribute {
      name: "kernel_shape"
      ints: 3
      ints: 3
      type: INTS
    }
    attribute {
      name: "pads"
      ints: 1
      ints: 1
      ints: 1
      ints: 1
      type: INTS
    }
    attribute {
      name: "strides"
      ints: 1
      ints: 1
      type: INTS
    }
  }
  node {
    input: "1304"
    input: "stage6.rebnconv1d.bn_s1.weight"
    input: "stage6.rebnconv1d.bn_s1.bias"
    input: "stage6.rebnconv1d.bn_s1.running_mean"
    input: "stage6.rebnconv1d.bn_s1.running_var"
    output: "1305"
    name: "BatchNormalization_506"
    op_type: "BatchNormalization"
    attribute {
      name: "epsilon"
      f: 9.999999747378752e-06
      type: FLOAT
    }
    attribute {
      name: "momentum"
      f: 0.8999999761581421
      type: FLOAT
    }
  }
  node {
    input: "1305"
    output: "1306"
    name: "Relu_507"
    op_type: "Relu"
  }
  node {
    input: "1306"
    input: "1282"
    output: "1307"
    name: "Add_508"
    op_type: "Add"
  }
  node {
    input: "1278"
    output: "1308"
    name: "Shape_509"
    op_type: "Shape"
  }
  node {
    output: "1309"
    name: "Constant_510"
    op_type: "Constant"
    attribute {
      name: "value"
      t {
        data_type: 7
      }
      type: TENSOR
    }
  }
  node {
    input: "1308"
    input: "1309"
    output: "1310"
    name: "Gather_511"
    op_type: "Gather"
    attribute {
      name: "axis"
      i: 0
      type: INT
    }
  }
  node {
    input: "1278"
    output: "1311"
    name: "Shape_512"
    op_type: "Shape"
  }
  node {
    output: "1312"
    name: "Constant_513"
    op_type: "Constant"
    attribute {
      name: "value"
      t {
        data_type: 7
      }
      type: TENSOR
    }
  }
  node {
    input: "1311"
    input: "1312"
    output: "1313"
    name: "Gather_514"
    op_type: "Gather"
    attribute {
      name: "axis"
      i: 0
      type: INT
    }
  }
  node {
    input: "1310"
    output: "1314"
    name: "Unsqueeze_515"
    op_type: "Unsqueeze"
    attribute {
      name: "axes"
      ints: 0
      type: INTS
    }
  }
  node {
    input: "1313"
    output: "1315"
    name: "Unsqueeze_516"
    op_type: "Unsqueeze"
    attribute {
      name: "axes"
      ints: 0
      type: INTS
    }
  }
  node {
    input: "1314"
    input: "1315"
    output: "1316"
    name: "Concat_517"
    op_type: "Concat"
    attribute {
      name: "axis"
      i: 0
      type: INT
    }
  }
  node {
    output: "1317"
    name: "Constant_518"
    op_type: "Constant"
    attribute {
      name: "value"
      t {
        dims: 2
        data_type: 1
      }
      type: TENSOR
    }
  }
  node {
    input: "1316"
    output: "1318"
    name: "Cast_519"
    op_type: "Cast"
    attribute {
      name: "to"
      i: 1
      type: INT
    }
  }
  node {
    input: "1307"
    output: "1319"
    name: "Shape_520"
    op_type: "Shape"
  }
  node {
    output: "1320"
    name: "Constant_521"
    op_type: "Constant"
    attribute {
      name: "value"
      t {
        dims: 1
        data_type: 7
      }
      type: TENSOR
    }
  }
  node {
    output: "1321"
    name: "Constant_522"
    op_type: "Constant"
    attribute {
      name: "value"
      t {
        dims: 1
        data_type: 7
      }
      type: TENSOR
    }
  }
  node {
    output: "1322"
    name: "Constant_523"
    op_type: "Constant"
    attribute {
      name: "value"
      t {
        dims: 1
        data_type: 7
      }
      type: TENSOR
    }
  }
  node {
    input: "1319"
    input: "1321"
    input: "1322"
    input: "1320"
    output: "1323"
    name: "Slice_524"
    op_type: "Slice"
  }
  node {
    input: "1323"
    output: "1324"
    name: "Cast_525"
    op_type: "Cast"
    attribute {
      name: "to"
      i: 1
      type: INT
    }
  }
  node {
    input: "1318"
    input: "1324"
    output: "1325"
    name: "Div_526"
    op_type: "Div"
  }
  node {
    input: "1317"
    input: "1325"
    output: "1326"
    name: "Concat_527"
    op_type: "Concat"
    attribute {
      name: "axis"
      i: 0
      type: INT
    }
  }
  node {
    input: "1307"
    input: "1326"
    output: "1327"
    name: "Resize_528"
    op_type: "Resize"
    attribute {
      name: "mode"
      s: "linear"
      type: STRING
    }
  }
  node {
    input: "1327"
    input: "1278"
    output: "1328"
    name: "Concat_529"
    op_type: "Concat"
    attribute {
      name: "axis"
      i: 1
      type: INT
    }
  }
  node {
    input: "1328"
    input: "stage5d.rebnconvin.conv_s1.weight"
    input: "stage5d.rebnconvin.conv_s1.bias"
    output: "1329"
    name: "Conv_530"
    op_type: "Conv"
    attribute {
      name: "dilations"
      ints: 1
      ints: 1
      type: INTS
    }
    attribute {
      name: "group"
      i: 1
      type: INT
    }
    attribute {
      name: "kernel_shape"
      ints: 3
      ints: 3
      type: INTS
    }
    attribute {
      name: "pads"
      ints: 1
      ints: 1
      ints: 1
      ints: 1
      type: INTS
    }
    attribute {
      name: "strides"
      ints: 1
      ints: 1
      type: INTS
    }
  }
  node {
    input: "1329"
    input: "stage5d.rebnconvin.bn_s1.weight"
    input: "stage5d.rebnconvin.bn_s1.bias"
    input: "stage5d.rebnconvin.bn_s1.running_mean"
    input: "stage5d.rebnconvin.bn_s1.running_var"
    output: "1330"
    name: "BatchNormalization_531"
    op_type: "BatchNormalization"
    attribute {
      name: "epsilon"
      f: 9.999999747378752e-06
      type: FLOAT
    }
    attribute {
      name: "momentum"
      f: 0.8999999761581421
      type: FLOAT
    }
  }
  node {
    input: "1330"
    output: "1331"
    name: "Relu_532"
    op_type: "Relu"
  }
  node {
    input: "1331"
    input: "stage5d.rebnconv1.conv_s1.weight"
    input: "stage5d.rebnconv1.conv_s1.bias"
    output: "1332"
    name: "Conv_533"
    op_type: "Conv"
    attribute {
      name: "dilations"
      ints: 1
      ints: 1
      type: INTS
    }
    attribute {
      name: "group"
      i: 1
      type: INT
    }
    attribute {
      name: "kernel_shape"
      ints: 3
      ints: 3
      type: INTS
    }
    attribute {
      name: "pads"
      ints: 1
      ints: 1
      ints: 1
      ints: 1
      type: INTS
    }
    attribute {
      name: "strides"
      ints: 1
      ints: 1
      type: INTS
    }
  }
  node {
    input: "1332"
    input: "stage5d.rebnconv1.bn_s1.weight"
    input: "stage5d.rebnconv1.bn_s1.bias"
    input: "stage5d.rebnconv1.bn_s1.running_mean"
    input: "stage5d.rebnconv1.bn_s1.running_var"
    output: "1333"
    name: "BatchNormalization_534"
    op_type: "BatchNormalization"
    attribute {
      name: "epsilon"
      f: 9.999999747378752e-06
      type: FLOAT
    }
    attribute {
      name: "momentum"
      f: 0.8999999761581421
      type: FLOAT
    }
  }
  node {
    input: "1333"
    output: "1334"
    name: "Relu_535"
    op_type: "Relu"
  }
  node {
    input: "1334"
    input: "stage5d.rebnconv2.conv_s1.weight"
    input: "stage5d.rebnconv2.conv_s1.bias"
    output: "1335"
    name: "Conv_536"
    op_type: "Conv"
    attribute {
      name: "dilations"
      ints: 2
      ints: 2
      type: INTS
    }
    attribute {
      name: "group"
      i: 1
      type: INT
    }
    attribute {
      name: "kernel_shape"
      ints: 3
      ints: 3
      type: INTS
    }
    attribute {
      name: "pads"
      ints: 2
      ints: 2
      ints: 2
      ints: 2
      type: INTS
    }
    attribute {
      name: "strides"
      ints: 1
      ints: 1
      type: INTS
    }
  }
  node {
    input: "1335"
    input: "stage5d.rebnconv2.bn_s1.weight"
    input: "stage5d.rebnconv2.bn_s1.bias"
    input: "stage5d.rebnconv2.bn_s1.running_mean"
    input: "stage5d.rebnconv2.bn_s1.running_var"
    output: "1336"
    name: "BatchNormalization_537"
    op_type: "BatchNormalization"
    attribute {
      name: "epsilon"
      f: 9.999999747378752e-06
      type: FLOAT
    }
    attribute {
      name: "momentum"
      f: 0.8999999761581421
      type: FLOAT
    }
  }
  node {
    input: "1336"
    output: "1337"
    name: "Relu_538"
    op_type: "Relu"
  }
  node {
    input: "1337"
    input: "stage5d.rebnconv3.conv_s1.weight"
    input: "stage5d.rebnconv3.conv_s1.bias"
    output: "1338"
    name: "Conv_539"
    op_type: "Conv"
    attribute {
      name: "dilations"
      ints: 4
      ints: 4
      type: INTS
    }
    attribute {
      name: "group"
      i: 1
      type: INT
    }
    attribute {
      name: "kernel_shape"
      ints: 3
      ints: 3
      type: INTS
    }
    attribute {
      name: "pads"
      ints: 4
      ints: 4
      ints: 4
      ints: 4
      type: INTS
    }
    attribute {
      name: "strides"
      ints: 1
      ints: 1
      type: INTS
    }
  }
  node {
    input: "1338"
    input: "stage5d.rebnconv3.bn_s1.weight"
    input: "stage5d.rebnconv3.bn_s1.bias"
    input: "stage5d.rebnconv3.bn_s1.running_mean"
    input: "stage5d.rebnconv3.bn_s1.running_var"
    output: "1339"
    name: "BatchNormalization_540"
    op_type: "BatchNormalization"
    attribute {
      name: "epsilon"
      f: 9.999999747378752e-06
      type: FLOAT
    }
    attribute {
      name: "momentum"
      f: 0.8999999761581421
      type: FLOAT
    }
  }
  node {
    input: "1339"
    output: "1340"
    name: "Relu_541"
    op_type: "Relu"
  }
  node {
    input: "1340"
    input: "stage5d.rebnconv4.conv_s1.weight"
    input: "stage5d.rebnconv4.conv_s1.bias"
    output: "1341"
    name: "Conv_542"
    op_type: "Conv"
    attribute {
      name: "dilations"
      ints: 8
      ints: 8
      type: INTS
    }
    attribute {
      name: "group"
      i: 1
      type: INT
    }
    attribute {
      name: "kernel_shape"
      ints: 3
      ints: 3
      type: INTS
    }
    attribute {
      name: "pads"
      ints: 8
      ints: 8
      ints: 8
      ints: 8
      type: INTS
    }
    attribute {
      name: "strides"
      ints: 1
      ints: 1
      type: INTS
    }
  }
  node {
    input: "1341"
    input: "stage5d.rebnconv4.bn_s1.weight"
    input: "stage5d.rebnconv4.bn_s1.bias"
    input: "stage5d.rebnconv4.bn_s1.running_mean"
    input: "stage5d.rebnconv4.bn_s1.running_var"
    output: "1342"
    name: "BatchNormalization_543"
    op_type: "BatchNormalization"
    attribute {
      name: "epsilon"
      f: 9.999999747378752e-06
      type: FLOAT
    }
    attribute {
      name: "momentum"
      f: 0.8999999761581421
      type: FLOAT
    }
  }
  node {
    input: "1342"
    output: "1343"
    name: "Relu_544"
    op_type: "Relu"
  }
  node {
    input: "1343"
    input: "1340"
    output: "1344"
    name: "Concat_545"
    op_type: "Concat"
    attribute {
      name: "axis"
      i: 1
      type: INT
    }
  }
  node {
    input: "1344"
    input: "stage5d.rebnconv3d.conv_s1.weight"
    input: "stage5d.rebnconv3d.conv_s1.bias"
    output: "1345"
    name: "Conv_546"
    op_type: "Conv"
    attribute {
      name: "dilations"
      ints: 4
      ints: 4
      type: INTS
    }
    attribute {
      name: "group"
      i: 1
      type: INT
    }
    attribute {
      name: "kernel_shape"
      ints: 3
      ints: 3
      type: INTS
    }
    attribute {
      name: "pads"
      ints: 4
      ints: 4
      ints: 4
      ints: 4
      type: INTS
    }
    attribute {
      name: "strides"
      ints: 1
      ints: 1
      type: INTS
    }
  }
  node {
    input: "1345"
    input: "stage5d.rebnconv3d.bn_s1.weight"
    input: "stage5d.rebnconv3d.bn_s1.bias"
    input: "stage5d.rebnconv3d.bn_s1.running_mean"
    input: "stage5d.rebnconv3d.bn_s1.running_var"
    output: "1346"
    name: "BatchNormalization_547"
    op_type: "BatchNormalization"
    attribute {
      name: "epsilon"
      f: 9.999999747378752e-06
      type: FLOAT
    }
    attribute {
      name: "momentum"
      f: 0.8999999761581421
      type: FLOAT
    }
  }
  node {
    input: "1346"
    output: "1347"
    name: "Relu_548"
    op_type: "Relu"
  }
  node {
    input: "1347"
    input: "1337"
    output: "1348"
    name: "Concat_549"
    op_type: "Concat"
    attribute {
      name: "axis"
      i: 1
      type: INT
    }
  }
  node {
    input: "1348"
    input: "stage5d.rebnconv2d.conv_s1.weight"
    input: "stage5d.rebnconv2d.conv_s1.bias"
    output: "1349"
    name: "Conv_550"
    op_type: "Conv"
    attribute {
      name: "dilations"
      ints: 2
      ints: 2
      type: INTS
    }
    attribute {
      name: "group"
      i: 1
      type: INT
    }
    attribute {
      name: "kernel_shape"
      ints: 3
      ints: 3
      type: INTS
    }
    attribute {
      name: "pads"
      ints: 2
      ints: 2
      ints: 2
      ints: 2
      type: INTS
    }
    attribute {
      name: "strides"
      ints: 1
      ints: 1
      type: INTS
    }
  }
  node {
    input: "1349"
    input: "stage5d.rebnconv2d.bn_s1.weight"
    input: "stage5d.rebnconv2d.bn_s1.bias"
    input: "stage5d.rebnconv2d.bn_s1.running_mean"
    input: "stage5d.rebnconv2d.bn_s1.running_var"
    output: "1350"
    name: "BatchNormalization_551"
    op_type: "BatchNormalization"
    attribute {
      name: "epsilon"
      f: 9.999999747378752e-06
      type: FLOAT
    }
    attribute {
      name: "momentum"
      f: 0.8999999761581421
      type: FLOAT
    }
  }
  node {
    input: "1350"
    output: "1351"
    name: "Relu_552"
    op_type: "Relu"
  }
  node {
    input: "1351"
    input: "1334"
    output: "1352"
    name: "Concat_553"
    op_type: "Concat"
    attribute {
      name: "axis"
      i: 1
      type: INT
    }
  }
  node {
    input: "1352"
    input: "stage5d.rebnconv1d.conv_s1.weight"
    input: "stage5d.rebnconv1d.conv_s1.bias"
    output: "1353"
    name: "Conv_554"
    op_type: "Conv"
    attribute {
      name: "dilations"
      ints: 1
      ints: 1
      type: INTS
    }
    attribute {
      name: "group"
      i: 1
      type: INT
    }
    attribute {
      name: "kernel_shape"
      ints: 3
      ints: 3
      type: INTS
    }
    attribute {
      name: "pads"
      ints: 1
      ints: 1
      ints: 1
      ints: 1
      type: INTS
    }
    attribute {
      name: "strides"
      ints: 1
      ints: 1
      type: INTS
    }
  }
  node {
    input: "1353"
    input: "stage5d.rebnconv1d.bn_s1.weight"
    input: "stage5d.rebnconv1d.bn_s1.bias"
    input: "stage5d.rebnconv1d.bn_s1.running_mean"
    input: "stage5d.rebnconv1d.bn_s1.running_var"
    output: "1354"
    name: "BatchNormalization_555"
    op_type: "BatchNormalization"
    attribute {
      name: "epsilon"
      f: 9.999999747378752e-06
      type: FLOAT
    }
    attribute {
      name: "momentum"
      f: 0.8999999761581421
      type: FLOAT
    }
  }
  node {
    input: "1354"
    output: "1355"
    name: "Relu_556"
    op_type: "Relu"
  }
  node {
    input: "1355"
    input: "1331"
    output: "1356"
    name: "Add_557"
    op_type: "Add"
  }
  node {
    input: "1249"
    output: "1357"
    name: "Shape_558"
    op_type: "Shape"
  }
  node {
    output: "1358"
    name: "Constant_559"
    op_type: "Constant"
    attribute {
      name: "value"
      t {
        data_type: 7
      }
      type: TENSOR
    }
  }
  node {
    input: "1357"
    input: "1358"
    output: "1359"
    name: "Gather_560"
    op_type: "Gather"
    attribute {
      name: "axis"
      i: 0
      type: INT
    }
  }
  node {
    input: "1249"
    output: "1360"
    name: "Shape_561"
    op_type: "Shape"
  }
  node {
    output: "1361"
    name: "Constant_562"
    op_type: "Constant"
    attribute {
      name: "value"
      t {
        data_type: 7
      }
      type: TENSOR
    }
  }
  node {
    input: "1360"
    input: "1361"
    output: "1362"
    name: "Gather_563"
    op_type: "Gather"
    attribute {
      name: "axis"
      i: 0
      type: INT
    }
  }
  node {
    input: "1359"
    output: "1363"
    name: "Unsqueeze_564"
    op_type: "Unsqueeze"
    attribute {
      name: "axes"
      ints: 0
      type: INTS
    }
  }
  node {
    input: "1362"
    output: "1364"
    name: "Unsqueeze_565"
    op_type: "Unsqueeze"
    attribute {
      name: "axes"
      ints: 0
      type: INTS
    }
  }
  node {
    input: "1363"
    input: "1364"
    output: "1365"
    name: "Concat_566"
    op_type: "Concat"
    attribute {
      name: "axis"
      i: 0
      type: INT
    }
  }
  node {
    output: "1366"
    name: "Constant_567"
    op_type: "Constant"
    attribute {
      name: "value"
      t {
        dims: 2
        data_type: 1
      }
      type: TENSOR
    }
  }
  node {
    input: "1365"
    output: "1367"
    name: "Cast_568"
    op_type: "Cast"
    attribute {
      name: "to"
      i: 1
      type: INT
    }
  }
  node {
    input: "1356"
    output: "1368"
    name: "Shape_569"
    op_type: "Shape"
  }
  node {
    output: "1369"
    name: "Constant_570"
    op_type: "Constant"
    attribute {
      name: "value"
      t {
        dims: 1
        data_type: 7
      }
      type: TENSOR
    }
  }
  node {
    output: "1370"
    name: "Constant_571"
    op_type: "Constant"
    attribute {
      name: "value"
      t {
        dims: 1
        data_type: 7
      }
      type: TENSOR
    }
  }
  node {
    output: "1371"
    name: "Constant_572"
    op_type: "Constant"
    attribute {
      name: "value"
      t {
        dims: 1
        data_type: 7
      }
      type: TENSOR
    }
  }
  node {
    input: "1368"
    input: "1370"
    input: "1371"
    input: "1369"
    output: "1372"
    name: "Slice_573"
    op_type: "Slice"
  }
  node {
    input: "1372"
    output: "1373"
    name: "Cast_574"
    op_type: "Cast"
    attribute {
      name: "to"
      i: 1
      type: INT
    }
  }
  node {
    input: "1367"
    input: "1373"
    output: "1374"
    name: "Div_575"
    op_type: "Div"
  }
  node {
    input: "1366"
    input: "1374"
    output: "1375"
    name: "Concat_576"
    op_type: "Concat"
    attribute {
      name: "axis"
      i: 0
      type: INT
    }
  }
  node {
    input: "1356"
    input: "1375"
    output: "1376"
    name: "Resize_577"
    op_type: "Resize"
    attribute {
      name: "mode"
      s: "linear"
      type: STRING
    }
  }
  node {
    input: "1376"
    input: "1249"
    output: "1377"
    name: "Concat_578"
    op_type: "Concat"
    attribute {
      name: "axis"
      i: 1
      type: INT
    }
  }
  node {
    input: "1377"
    input: "stage4d.rebnconvin.conv_s1.weight"
    input: "stage4d.rebnconvin.conv_s1.bias"
    output: "1378"
    name: "Conv_579"
    op_type: "Conv"
    attribute {
      name: "dilations"
      ints: 1
      ints: 1
      type: INTS
    }
    attribute {
      name: "group"
      i: 1
      type: INT
    }
    attribute {
      name: "kernel_shape"
      ints: 3
      ints: 3
      type: INTS
    }
    attribute {
      name: "pads"
      ints: 1
      ints: 1
      ints: 1
      ints: 1
      type: INTS
    }
    attribute {
      name: "strides"
      ints: 1
      ints: 1
      type: INTS
    }
  }
  node {
    input: "1378"
    input: "stage4d.rebnconvin.bn_s1.weight"
    input: "stage4d.rebnconvin.bn_s1.bias"
    input: "stage4d.rebnconvin.bn_s1.running_mean"
…
      name: "stage2.rebnconvin.bn_s1.bias"
  }
  initializer {
      dims: 64
      data_type: 1
      name: "stage2.rebnconvin.bn_s1.running_mean"
  }
  initializer {
      dims: 64
      data_type: 1
      name: "stage2.rebnconvin.bn_s1.running_var"
  }
  initializer {
      dims: 64
      data_type: 1
      name: "stage2.rebnconvin.bn_s1.weight"
  }
  initializer {
      dims: 64
      data_type: 1
      name: "stage2.rebnconvin.conv_s1.bias"
  }
  initializer {
      dims: 64
      dims: 64
      dims: 3
      dims: 3
      data_type: 1
      name: "stage2.rebnconvin.conv_s1.weight"
  }
  initializer {
      dims: 16
      data_type: 1
      name: "stage2d.rebnconv1.bn_s1.bias"
  }
  initializer {
      dims: 16
      data_type: 1
      name: "stage2d.rebnconv1.bn_s1.running_mean"
  }
  initializer {
      dims: 16
      data_type: 1
      name: "stage2d.rebnconv1.bn_s1.running_var"
  }
  initializer {
      dims: 16
      data_type: 1
      name: "stage2d.rebnconv1.bn_s1.weight"
  }
  initializer {
      dims: 16
      data_type: 1
      name: "stage2d.rebnconv1.conv_s1.bias"
  }
  initializer {
      dims: 16
      dims: 64
      dims: 3
      dims: 3
      data_type: 1
      name: "stage2d.rebnconv1.conv_s1.weight"
  }
  initializer {
      dims: 64
      data_type: 1
      name: "stage2d.rebnconv1d.bn_s1.bias"
  }
  initializer {
      dims: 64
      data_type: 1
      name: "stage2d.rebnconv1d.bn_s1.running_mean"
  }
  initializer {
      dims: 64
      data_type: 1
      name: "stage2d.rebnconv1d.bn_s1.running_var"
  }
  initializer {
      dims: 64
      data_type: 1
      name: "stage2d.rebnconv1d.bn_s1.weight"
  }
  initializer {
      dims: 64
      data_type: 1
      name: "stage2d.rebnconv1d.conv_s1.bias"
  }
  initializer {
      dims: 64
      dims: 32
      dims: 3
      dims: 3
      data_type: 1
      name: "stage2d.rebnconv1d.conv_s1.weight"
  }
  initializer {
      dims: 16
      data_type: 1
      name: "stage2d.rebnconv2.bn_s1.bias"
  }
  initializer {
      dims: 16
      data_type: 1
      name: "stage2d.rebnconv2.bn_s1.running_mean"
  }
  initializer {
      dims: 16
      data_type: 1
      name: "stage2d.rebnconv2.bn_s1.running_var"
  }
  initializer {
      dims: 16
      data_type: 1
      name: "stage2d.rebnconv2.bn_s1.weight"
  }
  initializer {
      dims: 16
      data_type: 1
      name: "stage2d.rebnconv2.conv_s1.bias"
  }
  initializer {
      dims: 16
      dims: 16
      dims: 3
      dims: 3
      data_type: 1
      name: "stage2d.rebnconv2.conv_s1.weight"
  }
  initializer {
      dims: 16
      data_type: 1
      name: "stage2d.rebnconv2d.bn_s1.bias"
  }
  initializer {
      dims: 16
      data_type: 1
      name: "stage2d.rebnconv2d.bn_s1.running_mean"
  }
  initializer {
      dims: 16
      data_type: 1
      name: "stage2d.rebnconv2d.bn_s1.running_var"
  }
  initializer {
      dims: 16
      data_type: 1
      name: "stage2d.rebnconv2d.bn_s1.weight"
  }
  initializer {
      dims: 16
      data_type: 1
      name: "stage2d.rebnconv2d.conv_s1.bias"
  }
  initializer {
      dims: 16
      dims: 32
      dims: 3
      dims: 3
      data_type: 1
      name: "stage2d.rebnconv2d.conv_s1.weight"
  }
  initializer {
      dims: 16
      data_type: 1
      name: "stage2d.rebnconv3.bn_s1.bias"
  }
  initializer {
      dims: 16
      data_type: 1
      name: "stage2d.rebnconv3.bn_s1.running_mean"
  }
  initializer {
      dims: 16
      data_type: 1
      name: "stage2d.rebnconv3.bn_s1.running_var"
  }
  initializer {
      dims: 16
      data_type: 1
      name: "stage2d.rebnconv3.bn_s1.weight"
  }
  initializer {
      dims: 16
      data_type: 1
      name: "stage2d.rebnconv3.conv_s1.bias"
  }
  initializer {
      dims: 16
      dims: 16
      dims: 3
      dims: 3
      data_type: 1
      name: "stage2d.rebnconv3.conv_s1.weight"
  }
  initializer {
      dims: 16
      data_type: 1
      name: "stage2d.rebnconv3d.bn_s1.bias"
  }
  initializer {
      dims: 16
      data_type: 1
      name: "stage2d.rebnconv3d.bn_s1.running_mean"
  }
  initializer {
      dims: 16
      data_type: 1
      name: "stage2d.rebnconv3d.bn_s1.running_var"
  }
  initializer {
      dims: 16
      data_type: 1
      name: "stage2d.rebnconv3d.bn_s1.weight"
  }
  initializer {
      dims: 16
      data_type: 1
      name: "stage2d.rebnconv3d.conv_s1.bias"
  }
  initializer {
      dims: 16
      dims: 32
      dims: 3
      dims: 3
      data_type: 1
      name: "stage2d.rebnconv3d.conv_s1.weight"
  }
  initializer {
      dims: 16
      data_type: 1
      name: "stage2d.rebnconv4.bn_s1.bias"
  }
  initializer {
      dims: 16
      data_type: 1
      name: "stage2d.rebnconv4.bn_s1.running_mean"
  }
  initializer {
      dims: 16
      data_type: 1
      name: "stage2d.rebnconv4.bn_s1.running_var"
  }
  initializer {
      dims: 16
      data_type: 1
      name: "stage2d.rebnconv4.bn_s1.weight"
  }
  initializer {
      dims: 16
      data_type: 1
      name: "stage2d.rebnconv4.conv_s1.bias"
  }
  initializer {
      dims: 16
      dims: 16
      dims: 3
      dims: 3
      data_type: 1
      name: "stage2d.rebnconv4.conv_s1.weight"
  }
  initializer {
      dims: 16
      data_type: 1
      name: "stage2d.rebnconv4d.bn_s1.bias"
  }
  initializer {
      dims: 16
      data_type: 1
      name: "stage2d.rebnconv4d.bn_s1.running_mean"
  }
  initializer {
      dims: 16
      data_type: 1
      name: "stage2d.rebnconv4d.bn_s1.running_var"
  }
  initializer {
      dims: 16
      data_type: 1
      name: "stage2d.rebnconv4d.bn_s1.weight"
  }
  initializer {
      dims: 16
      data_type: 1
      name: "stage2d.rebnconv4d.conv_s1.bias"
  }
  initializer {
      dims: 16
      dims: 32
      dims: 3
      dims: 3
      data_type: 1
      name: "stage2d.rebnconv4d.conv_s1.weight"
  }
  initializer {
      dims: 16
      data_type: 1
      name: "stage2d.rebnconv5.bn_s1.bias"
  }
  initializer {
      dims: 16
      data_type: 1
      name: "stage2d.rebnconv5.bn_s1.running_mean"
  }
  initializer {
      dims: 16
      data_type: 1
      name: "stage2d.rebnconv5.bn_s1.running_var"
  }
  initializer {
      dims: 16
      data_type: 1
      name: "stage2d.rebnconv5.bn_s1.weight"
  }
  initializer {
      dims: 16
      data_type: 1
      name: "stage2d.rebnconv5.conv_s1.bias"
  }
  initializer {
      dims: 16
      dims: 16
      dims: 3
      dims: 3
      data_type: 1
      name: "stage2d.rebnconv5.conv_s1.weight"
  }
  initializer {
      dims: 16
      data_type: 1
      name: "stage2d.rebnconv5d.bn_s1.bias"
  }
  initializer {
      dims: 16
      data_type: 1
      name: "stage2d.rebnconv5d.bn_s1.running_mean"
  }
  initializer {
      dims: 16
      data_type: 1
      name: "stage2d.rebnconv5d.bn_s1.running_var"
  }
  initializer {
      dims: 16
      data_type: 1
      name: "stage2d.rebnconv5d.bn_s1.weight"
  }
  initializer {
      dims: 16
      data_type: 1
      name: "stage2d.rebnconv5d.conv_s1.bias"
  }
  initializer {
      dims: 16
      dims: 32
      dims: 3
      dims: 3
      data_type: 1
      name: "stage2d.rebnconv5d.conv_s1.weight"
  }
  initializer {
      dims: 16
      data_type: 1
      name: "stage2d.rebnconv6.bn_s1.bias"
  }
  initializer {
      dims: 16
      data_type: 1
      name: "stage2d.rebnconv6.bn_s1.running_mean"
  }
  initializer {
      dims: 16
      data_type: 1
      name: "stage2d.rebnconv6.bn_s1.running_var"
  }
  initializer {
      dims: 16
      data_type: 1
      name: "stage2d.rebnconv6.bn_s1.weight"
  }
  initializer {
      dims: 16
      data_type: 1
      name: "stage2d.rebnconv6.conv_s1.bias"
  }
  initializer {
      dims: 16
      dims: 16
      dims: 3
      dims: 3
      data_type: 1
      name: "stage2d.rebnconv6.conv_s1.weight"
  }
  initializer {
      dims: 64
      data_type: 1
      name: "stage2d.rebnconvin.bn_s1.bias"
  }
  initializer {
      dims: 64
      data_type: 1
      name: "stage2d.rebnconvin.bn_s1.running_mean"
  }
  initializer {
      dims: 64
      data_type: 1
      name: "stage2d.rebnconvin.bn_s1.running_var"
  }
  initializer {
      dims: 64
      data_type: 1
      name: "stage2d.rebnconvin.bn_s1.weight"
  }
  initializer {
      dims: 64
      data_type: 1
      name: "stage2d.rebnconvin.conv_s1.bias"
  }
  initializer {
      dims: 64
      dims: 128
      dims: 3
      dims: 3
      data_type: 1
      name: "stage2d.rebnconvin.conv_s1.weight"
  }
  initializer {
      dims: 16
      data_type: 1
      name: "stage3.rebnconv1.bn_s1.bias"
  }
  initializer {
      dims: 16
      data_type: 1
      name: "stage3.rebnconv1.bn_s1.running_mean"
  }
  initializer {
      dims: 16
      data_type: 1
      name: "stage3.rebnconv1.bn_s1.running_var"
  }
  initializer {
      dims: 16
      data_type: 1
      name: "stage3.rebnconv1.bn_s1.weight"
  }
  initializer {
      dims: 16
      data_type: 1
      name: "stage3.rebnconv1.conv_s1.bias"
  }
  initializer {
      dims: 16
      dims: 64
      dims: 3
      dims: 3
      data_type: 1
      name: "stage3.rebnconv1.conv_s1.weight"
  }
  initializer {
      dims: 64
      data_type: 1
      name: "stage3.rebnconv1d.bn_s1.bias"
  }
  initializer {
      dims: 64
      data_type: 1
      name: "stage3.rebnconv1d.bn_s1.running_mean"
  }
  initializer {
      dims: 64
      data_type: 1
      name: "stage3.rebnconv1d.bn_s1.running_var"
  }
  initializer {
      dims: 64
      data_type: 1
      name: "stage3.rebnconv1d.bn_s1.weight"
  }
  initializer {
      dims: 64
      data_type: 1
      name: "stage3.rebnconv1d.conv_s1.bias"
  }
  initializer {
      dims: 64
      dims: 32
      dims: 3
      dims: 3
      data_type: 1
      name: "stage3.rebnconv1d.conv_s1.weight"
  }
  initializer {
      dims: 16
      data_type: 1
      name: "stage3.rebnconv2.bn_s1.bias"
  }
  initializer {
      dims: 16
      data_type: 1
      name: "stage3.rebnconv2.bn_s1.running_mean"
  }
  initializer {
      dims: 16
      data_type: 1
      name: "stage3.rebnconv2.bn_s1.running_var"
  }
  initializer {
      dims: 16
      data_type: 1
      name: "stage3.rebnconv2.bn_s1.weight"
  }
  initializer {
      dims: 16
      data_type: 1
      name: "stage3.rebnconv2.conv_s1.bias"
  }
  initializer {
      dims: 16
      dims: 16
      dims: 3
      dims: 3
      data_type: 1
      name: "stage3.rebnconv2.conv_s1.weight"
  }
  initializer {
      dims: 16
      data_type: 1
      name: "stage3.rebnconv2d.bn_s1.bias"
  }
  initializer {
      dims: 16
      data_type: 1
      name: "stage3.rebnconv2d.bn_s1.running_mean"
  }
  initializer {
      dims: 16
      data_type: 1
      name: "stage3.rebnconv2d.bn_s1.running_var"
  }
  initializer {
      dims: 16
      data_type: 1
      name: "stage3.rebnconv2d.bn_s1.weight"
  }
  initializer {
      dims: 16
      data_type: 1
      name: "stage3.rebnconv2d.conv_s1.bias"
  }
  initializer {
      dims: 16
      dims: 32
      dims: 3
      dims: 3
      data_type: 1
      name: "stage3.rebnconv2d.conv_s1.weight"
  }
  initializer {
      dims: 16
      data_type: 1
      name: "stage3.rebnconv3.bn_s1.bias"
  }
  initializer {
      dims: 16
      data_type: 1
      name: "stage3.rebnconv3.bn_s1.running_mean"
  }
  initializer {
      dims: 16
      data_type: 1
      name: "stage3.rebnconv3.bn_s1.running_var"
  }
  initializer {
      dims: 16
      data_type: 1
      name: "stage3.rebnconv3.bn_s1.weight"
  }
  initializer {
      dims: 16
      data_type: 1
      name: "stage3.rebnconv3.conv_s1.bias"
  }
  initializer {
      dims: 16
      dims: 16
      dims: 3
      dims: 3
      data_type: 1
      name: "stage3.rebnconv3.conv_s1.weight"
  }
  initializer {
      dims: 16
      data_type: 1
      name: "stage3.rebnconv3d.bn_s1.bias"
  }
  initializer {
      dims: 16
      data_type: 1
      name: "stage3.rebnconv3d.bn_s1.running_mean"
  }
  initializer {
      dims: 16
      data_type: 1
      name: "stage3.rebnconv3d.bn_s1.running_var"
  }
  initializer {
      dims: 16
      data_type: 1
      name: "stage3.rebnconv3d.bn_s1.weight"
  }
  initializer {
      dims: 16
      data_type: 1
      name: "stage3.rebnconv3d.conv_s1.bias"
  }
  initializer {
      dims: 16
      dims: 32
      dims: 3
      dims: 3
      data_type: 1
      name: "stage3.rebnconv3d.conv_s1.weight"
  }
  initializer {
      dims: 16
      data_type: 1
      name: "stage3.rebnconv4.bn_s1.bias"
  }
  initializer {
      dims: 16
      data_type: 1
      name: "stage3.rebnconv4.bn_s1.running_mean"
  }
  initializer {
      dims: 16
      data_type: 1
      name: "stage3.rebnconv4.bn_s1.running_var"
  }
  initializer {
      dims: 16
      data_type: 1
      name: "stage3.rebnconv4.bn_s1.weight"
  }
  initializer {
      dims: 16
      data_type: 1
      name: "stage3.rebnconv4.conv_s1.bias"
  }
  initializer {
      dims: 16
      dims: 16
      dims: 3
      dims: 3
      data_type: 1
      name: "stage3.rebnconv4.conv_s1.weight"
  }
  initializer {
      dims: 16
      data_type: 1
      name: "stage3.rebnconv4d.bn_s1.bias"
  }
  initializer {
      dims: 16
      data_type: 1
      name: "stage3.rebnconv4d.bn_s1.running_mean"
  }
  initializer {
      dims: 16
      data_type: 1
      name: "stage3.rebnconv4d.bn_s1.running_var"
  }
  initializer {
      dims: 16
      data_type: 1
      name: "stage3.rebnconv4d.bn_s1.weight"
  }
  initializer {
      dims: 16
      data_type: 1
      name: "stage3.rebnconv4d.conv_s1.bias"
  }
  initializer {
      dims: 16
      dims: 32
      dims: 3
      dims: 3
      data_type: 1
      name: "stage3.rebnconv4d.conv_s1.weight"
  }
  initializer {
      dims: 16
      data_type: 1
      name: "stage3.rebnconv5.bn_s1.bias"
  }
  initializer {
      dims: 16
      data_type: 1
      name: "stage3.rebnconv5.bn_s1.running_mean"
  }
  initializer {
      dims: 16
      data_type: 1
      name: "stage3.rebnconv5.bn_s1.running_var"
  }
  initializer {
      dims: 16
      data_type: 1
      name: "stage3.rebnconv5.bn_s1.weight"
  }
  initializer {
      dims: 16
      data_type: 1
      name: "stage3.rebnconv5.conv_s1.bias"
  }
  initializer {
      dims: 16
      dims: 16
      dims: 3
      dims: 3
      data_type: 1
      name: "stage3.rebnconv5.conv_s1.weight"
  }
  initializer {
      dims: 64
      data_type: 1
      name: "stage3.rebnconvin.bn_s1.bias"
  }
  initializer {
      dims: 64
      data_type: 1
      name: "stage3.rebnconvin.bn_s1.running_mean"
  }
  initializer {
      dims: 64
      data_type: 1
      name: "stage3.rebnconvin.bn_s1.running_var"
  }
  initializer {
      dims: 64
      data_type: 1
      name: "stage3.rebnconvin.bn_s1.weight"
  }
  initializer {
      dims: 64
      data_type: 1
      name: "stage3.rebnconvin.conv_s1.bias"
  }
  initializer {
      dims: 64
      dims: 64
      dims: 3
      dims: 3
      data_type: 1
      name: "stage3.rebnconvin.conv_s1.weight"
  }
  initializer {
      dims: 16
      data_type: 1
      name: "stage3d.rebnconv1.bn_s1.bias"
  }
  initializer {
      dims: 16
      data_type: 1
      name: "stage3d.rebnconv1.bn_s1.running_mean"
  }
  initializer {
      dims: 16
      data_type: 1
      name: "stage3d.rebnconv1.bn_s1.running_var"
  }
  initializer {
      dims: 16
      data_type: 1
      name: "stage3d.rebnconv1.bn_s1.weight"
  }
  initializer {
      dims: 16
      data_type: 1
      name: "stage3d.rebnconv1.conv_s1.bias"
  }
  initializer {
      dims: 16
      dims: 64
      dims: 3
      dims: 3
      data_type: 1
      name: "stage3d.rebnconv1.conv_s1.weight"
  }
  initializer {
      dims: 64
      data_type: 1
      name: "stage3d.rebnconv1d.bn_s1.bias"
  }
  initializer {
      dims: 64
      data_type: 1
      name: "stage3d.rebnconv1d.bn_s1.running_mean"
  }
  initializer {
      dims: 64
      data_type: 1
      name: "stage3d.rebnconv1d.bn_s1.running_var"
  }
  initializer {
      dims: 64
      data_type: 1
      name: "stage3d.rebnconv1d.bn_s1.weight"
  }
  initializer {
      dims: 64
      data_type: 1
      name: "stage3d.rebnconv1d.conv_s1.bias"
  }
  initializer {
      dims: 64
      dims: 32
      dims: 3
      dims: 3
      data_type: 1
      name: "stage3d.rebnconv1d.conv_s1.weight"
  }
  initializer {
      dims: 16
      data_type: 1
      name: "stage3d.rebnconv2.bn_s1.bias"
  }
  initializer {
      dims: 16
      data_type: 1
      name: "stage3d.rebnconv2.bn_s1.running_mean"
  }
  initializer {
      dims: 16
      data_type: 1
      name: "stage3d.rebnconv2.bn_s1.running_var"
  }
  initializer {
      dims: 16
      data_type: 1
      name: "stage3d.rebnconv2.bn_s1.weight"
  }
  initializer {
      dims: 16
      data_type: 1
      name: "stage3d.rebnconv2.conv_s1.bias"
  }
  initializer {
      dims: 16
      dims: 16
      dims: 3
      dims: 3
      data_type: 1
      name: "stage3d.rebnconv2.conv_s1.weight"
  }
  initializer {
      dims: 16
      data_type: 1
      name: "stage3d.rebnconv2d.bn_s1.bias"
  }
  initializer {
      dims: 16
      data_type: 1
      name: "stage3d.rebnconv2d.bn_s1.running_mean"
  }
  initializer {
      dims: 16
      data_type: 1
      name: "stage3d.rebnconv2d.bn_s1.running_var"
  }
  initializer {
      dims: 16
      data_type: 1
      name: "stage3d.rebnconv2d.bn_s1.weight"
  }
  initializer {
      dims: 16
      data_type: 1
      name: "stage3d.rebnconv2d.conv_s1.bias"
  }
  initializer {
      dims: 16
      dims: 32
      dims: 3
      dims: 3
      data_type: 1
      name: "stage3d.rebnconv2d.conv_s1.weight"
  }
  initializer {
      dims: 16
      data_type: 1
      name: "stage3d.rebnconv3.bn_s1.bias"
  }
  initializer {
      dims: 16
      data_type: 1
      name: "stage3d.rebnconv3.bn_s1.running_mean"
  }
  initializer {
      dims: 16
      data_type: 1
      name: "stage3d.rebnconv3.bn_s1.running_var"
  }
  initializer {
      dims: 16
      data_type: 1
      name: "stage3d.rebnconv3.bn_s1.weight"
  }
  initializer {
      dims: 16
      data_type: 1
      name: "stage3d.rebnconv3.conv_s1.bias"
  }
  initializer {
      dims: 16
      dims: 16
      dims: 3
      dims: 3
      data_type: 1
      name: "stage3d.rebnconv3.conv_s1.weight"
  }
  initializer {
      dims: 16
      data_type: 1
      name: "stage3d.rebnconv3d.bn_s1.bias"
  }
  initializer {
      dims: 16
      data_type: 1
      name: "stage3d.rebnconv3d.bn_s1.running_mean"
  }
  initializer {
      dims: 16
      data_type: 1
      name: "stage3d.rebnconv3d.bn_s1.running_var"
  }
  initializer {
      dims: 16
      data_type: 1
      name: "stage3d.rebnconv3d.bn_s1.weight"
  }
  initializer {
      dims: 16
      data_type: 1
      name: "stage3d.rebnconv3d.conv_s1.bias"
  }
  initializer {
      dims: 16
      dims: 32
      dims: 3
      dims: 3
      data_type: 1
      name: "stage3d.rebnconv3d.conv_s1.weight"
  }
  initializer {
      dims: 16
      data_type: 1
      name: "stage3d.rebnconv4.bn_s1.bias"
  }
  initializer {
      dims: 16
      data_type: 1
      name: "stage3d.rebnconv4.bn_s1.running_mean"
  }
  initializer {
      dims: 16
      data_type: 1
      name: "stage3d.rebnconv4.bn_s1.running_var"
  }
  initializer {
      dims: 16
      data_type: 1
      name: "stage3d.rebnconv4.bn_s1.weight"
  }
  initializer {
      dims: 16
      data_type: 1
      name: "stage3d.rebnconv4.conv_s1.bias"
  }
  initializer {
      dims: 16
      dims: 16
      dims: 3
      dims: 3
      data_type: 1
      name: "stage3d.rebnconv4.conv_s1.weight"
  }
  initializer {
      dims: 16
      data_type: 1
      name: "stage3d.rebnconv4d.bn_s1.bias"
  }
  initializer {
      dims: 16
      data_type: 1
      name: "stage3d.rebnconv4d.bn_s1.running_mean"
  }
  initializer {
      dims: 16
      data_type: 1
      name: "stage3d.rebnconv4d.bn_s1.running_var"
  }
  initializer {
      dims: 16
      data_type: 1
      name: "stage3d.rebnconv4d.bn_s1.weight"
  }
  initializer {
      dims: 16
      data_type: 1
      name: "stage3d.rebnconv4d.conv_s1.bias"
  }
  initializer {
      dims: 16
      dims: 32
      dims: 3
      dims: 3
      data_type: 1
      name: "stage3d.rebnconv4d.conv_s1.weight"
  }
  initializer {
      dims: 16
      data_type: 1
      name: "stage3d.rebnconv5.bn_s1.bias"
  }
  initializer {
      dims: 16
      data_type: 1
      name: "stage3d.rebnconv5.bn_s1.running_mean"
  }
  initializer {
      dims: 16
      data_type: 1
      name: "stage3d.rebnconv5.bn_s1.running_var"
  }
  initializer {
      dims: 16
      data_type: 1
      name: "stage3d.rebnconv5.bn_s1.weight"
  }
  initializer {
      dims: 16
      data_type: 1
      name: "stage3d.rebnconv5.conv_s1.bias"
  }
  initializer {
      dims: 16
      dims: 16
      dims: 3
      dims: 3
      data_type: 1
      name: "stage3d.rebnconv5.conv_s1.weight"
  }
  initializer {
      dims: 64
      data_type: 1
      name: "stage3d.rebnconvin.bn_s1.bias"
  }
  initializer {
      dims: 64
      data_type: 1
      name: "stage3d.rebnconvin.bn_s1.running_mean"
  }
  initializer {
      dims: 64
      data_type: 1
      name: "stage3d.rebnconvin.bn_s1.running_var"
  }
  initializer {
      dims: 64
      data_type: 1
      name: "stage3d.rebnconvin.bn_s1.weight"
  }
  initializer {
      dims: 64
      data_type: 1
      name: "stage3d.rebnconvin.conv_s1.bias"
  }
  initializer {
      dims: 64
      dims: 128
      dims: 3
      dims: 3
      data_type: 1
      name: "stage3d.rebnconvin.conv_s1.weight"
  }
  initializer {
      dims: 16
      data_type: 1
      name: "stage4.rebnconv1.bn_s1.bias"
  }
  initializer {
      dims: 16
      data_type: 1
      name: "stage4.rebnconv1.bn_s1.running_mean"
  }
  initializer {
      dims: 16
      data_type: 1
      name: "stage4.rebnconv1.bn_s1.running_var"
  }
  initializer {
      dims: 16
      data_type: 1
      name: "stage4.rebnconv1.bn_s1.weight"
  }
  initializer {
      dims: 16
      data_type: 1
      name: "stage4.rebnconv1.conv_s1.bias"
  }
  initializer {
      dims: 16
      dims: 64
      dims: 3
      dims: 3
      data_type: 1
      name: "stage4.rebnconv1.conv_s1.weight"
  }
  initializer {
      dims: 64
      data_type: 1
      name: "stage4.rebnconv1d.bn_s1.bias"
  }
  initializer {
      dims: 64
      data_type: 1
      name: "stage4.rebnconv1d.bn_s1.running_mean"
  }
  initializer {
      dims: 64
      data_type: 1
      name: "stage4.rebnconv1d.bn_s1.running_var"
  }
  initializer {
      dims: 64
      data_type: 1
      name: "stage4.rebnconv1d.bn_s1.weight"
  }
  initializer {
      dims: 64
      data_type: 1
      name: "stage4.rebnconv1d.conv_s1.bias"
  }
  initializer {
      dims: 64
      dims: 32
      dims: 3
      dims: 3
      data_type: 1
      name: "stage4.rebnconv1d.conv_s1.weight"
  }
  initializer {
      dims: 16
      data_type: 1
      name: "stage4.rebnconv2.bn_s1.bias"
  }
  initializer {
      dims: 16
      data_type: 1
      name: "stage4.rebnconv2.bn_s1.running_mean"
  }
  initializer {
      dims: 16
      data_type: 1
      name: "stage4.rebnconv2.bn_s1.running_var"
  }
  initializer {
      dims: 16
      data_type: 1
      name: "stage4.rebnconv2.bn_s1.weight"
  }
  initializer {
      dims: 16
      data_type: 1
      name: "stage4.rebnconv2.conv_s1.bias"
  }
  initializer {
      dims: 16
      dims: 16
      dims: 3
      dims: 3
      data_type: 1
      name: "stage4.rebnconv2.conv_s1.weight"
  }
  initializer {
      dims: 16
      data_type: 1
      name: "stage4.rebnconv2d.bn_s1.bias"
  }
  initializer {
      dims: 16
      data_type: 1
      name: "stage4.rebnconv2d.bn_s1.running_mean"
  }
  initializer {
      dims: 16
      data_type: 1
      name: "stage4.rebnconv2d.bn_s1.running_var"
  }
  initializer {
      dims: 16
      data_type: 1
      name: "stage4.rebnconv2d.bn_s1.weight"
  }
  initializer {
      dims: 16
      data_type: 1
      name: "stage4.rebnconv2d.conv_s1.bias"
  }
  initializer {
      dims: 16
      dims: 32
      dims: 3
      dims: 3
      data_type: 1
      name: "stage4.rebnconv2d.conv_s1.weight"
  }
  initializer {
      dims: 16
      data_type: 1
      name: "stage4.rebnconv3.bn_s1.bias"
  }
  initializer {
      dims: 16
      data_type: 1
      name: "stage4.rebnconv3.bn_s1.running_mean"
  }
  initializer {
      dims: 16
      data_type: 1
      name: "stage4.rebnconv3.bn_s1.running_var"
  }
  initializer {
      dims: 16
      data_type: 1
      name: "stage4.rebnconv3.bn_s1.weight"
  }
  initializer {
      dims: 16
      data_type: 1
      name: "stage4.rebnconv3.conv_s1.bias"
  }
  initializer {
      dims: 16
      dims: 16
      dims: 3
      dims: 3
      data_type: 1
      name: "stage4.rebnconv3.conv_s1.weight"
  }
  initializer {
      dims: 16
      data_type: 1
      name: "stage4.rebnconv3d.bn_s1.bias"
  }
  initializer {
      dims: 16
      data_type: 1
      name: "stage4.rebnconv3d.bn_s1.running_mean"
  }
  initializer {
      dims: 16
      data_type: 1
      name: "stage4.rebnconv3d.bn_s1.running_var"
  }
  initializer {
      dims: 16
      data_type: 1
      name: "stage4.rebnconv3d.bn_s1.weight"
  }
  initializer {
      dims: 16
      data_type: 1
      name: "stage4.rebnconv3d.conv_s1.bias"
  }
  initializer {
      dims: 16
      dims: 32
      dims: 3
      dims: 3
      data_type: 1
      name: "stage4.rebnconv3d.conv_s1.weight"
  }
  initializer {
      dims: 16
      data_type: 1
      name: "stage4.rebnconv4.bn_s1.bias"
  }
  initializer {
      dims: 16
      data_type: 1
      name: "stage4.rebnconv4.bn_s1.running_mean"
  }
  initializer {
      dims: 16
      data_type: 1
      name: "stage4.rebnconv4.bn_s1.running_var"
  }
  initializer {
      dims: 16
      data_type: 1
      name: "stage4.rebnconv4.bn_s1.weight"
  }
  initializer {
      dims: 16
      data_type: 1
      name: "stage4.rebnconv4.conv_s1.bias"
  }
  initializer {
      dims: 16
      dims: 16
      dims: 3
      dims: 3
      data_type: 1
      name: "stage4.rebnconv4.conv_s1.weight"
  }
  initializer {
      dims: 64
      data_type: 1
      name: "stage4.rebnconvin.bn_s1.bias"
  }
  initializer {
      dims: 64
      data_type: 1
      name: "stage4.rebnconvin.bn_s1.running_mean"
  }
  initializer {
      dims: 64
      data_type: 1
      name: "stage4.rebnconvin.bn_s1.running_var"
  }
  initializer {
      dims: 64
      data_type: 1
      name: "stage4.rebnconvin.bn_s1.weight"
  }
  initializer {
      dims: 64
      data_type: 1
      name: "stage4.rebnconvin.conv_s1.bias"
  }
  initializer {
      dims: 64
      dims: 64
      dims: 3
      dims: 3
      data_type: 1
      name: "stage4.rebnconvin.conv_s1.weight"
  }
  initializer {
      dims: 16
      data_type: 1
      name: "stage4d.rebnconv1.bn_s1.bias"
  }
  initializer {
      dims: 16
      data_type: 1
      name: "stage4d.rebnconv1.bn_s1.running_mean"
  }
  initializer {
      dims: 16
      data_type: 1
      name: "stage4d.rebnconv1.bn_s1.running_var"
  }
  initializer {
      dims: 16
      data_type: 1
      name: "stage4d.rebnconv1.bn_s1.weight"
  }
  initializer {
      dims: 16
      data_type: 1
      name: "stage4d.rebnconv1.conv_s1.bias"
  }
  initializer {
      dims: 16
      dims: 64
      dims: 3
      dims: 3
      data_type: 1
      name: "stage4d.rebnconv1.conv_s1.weight"
  }
  initializer {
      dims: 64
      data_type: 1
      name: "stage4d.rebnconv1d.bn_s1.bias"
  }
  initializer {
      dims: 64
      data_type: 1
      name: "stage4d.rebnconv1d.bn_s1.running_mean"
  }
  initializer {
      dims: 64
      data_type: 1
      name: "stage4d.rebnconv1d.bn_s1.running_var"
  }
  initializer {
      dims: 64
      data_type: 1
      name: "stage4d.rebnconv1d.bn_s1.weight"
  }
  initializer {
      dims: 64
      data_type: 1
      name: "stage4d.rebnconv1d.conv_s1.bias"
  }
  initializer {
      dims: 64
      dims: 32
      dims: 3
      dims: 3
      data_type: 1
      name: "stage4d.rebnconv1d.conv_s1.weight"
  }
  initializer {
      dims: 16
      data_type: 1
      name: "stage4d.rebnconv2.bn_s1.bias"
  }
  initializer {
      dims: 16
      data_type: 1
      name: "stage4d.rebnconv2.bn_s1.running_mean"
  }
  initializer {
      dims: 16
      data_type: 1
      name: "stage4d.rebnconv2.bn_s1.running_var"
  }
  initializer {
      dims: 16
      data_type: 1
      name: "stage4d.rebnconv2.bn_s1.weight"
  }
  initializer {
      dims: 16
      data_type: 1
      name: "stage4d.rebnconv2.conv_s1.bias"
  }
  initializer {
      dims: 16
      dims: 16
      dims: 3
      dims: 3
      data_type: 1
      name: "stage4d.rebnconv2.conv_s1.weight"
  }
  initializer {
      dims: 16
      data_type: 1
      name: "stage4d.rebnconv2d.bn_s1.bias"
  }
  initializer {
      dims: 16
      data_type: 1
      name: "stage4d.rebnconv2d.bn_s1.running_mean"
  }
  initializer {
      dims: 16
      data_type: 1
      name: "stage4d.rebnconv2d.bn_s1.running_var"
  }
  initializer {
      dims: 16
      data_type: 1
      name: "stage4d.rebnconv2d.bn_s1.weight"
  }
  initializer {
      dims: 16
      data_type: 1
      name: "stage4d.rebnconv2d.conv_s1.bias"
  }
  initializer {
      dims: 16
      dims: 32
      dims: 3
      dims: 3
      data_type: 1
      name: "stage4d.rebnconv2d.conv_s1.weight"
  }
  initializer {
      dims: 16
      data_type: 1
      name: "stage4d.rebnconv3.bn_s1.bias"
  }
  initializer {
      dims: 16
      data_type: 1
      name: "stage4d.rebnconv3.bn_s1.running_mean"
  }
  initializer {
      dims: 16
      data_type: 1
      name: "stage4d.rebnconv3.bn_s1.running_var"
  }
  initializer {
      dims: 16
      data_type: 1
      name: "stage4d.rebnconv3.bn_s1.weight"
  }
  initializer {
      dims: 16
      data_type: 1
      name: "stage4d.rebnconv3.conv_s1.bias"
  }
  initializer {
      dims: 16
      dims: 16
      dims: 3
      dims: 3
      data_type: 1
      name: "stage4d.rebnconv3.conv_s1.weight"
  }
  initializer {
      dims: 16
      data_type: 1
      name: "stage4d.rebnconv3d.bn_s1.bias"
  }
  initializer {
      dims: 16
      data_type: 1
      name: "stage4d.rebnconv3d.bn_s1.running_mean"
  }
  initializer {
      dims: 16
      data_type: 1
      name: "stage4d.rebnconv3d.bn_s1.running_var"
  }
  initializer {
      dims: 16
      data_type: 1
      name: "stage4d.rebnconv3d.bn_s1.weight"
  }
  initializer {
      dims: 16
      data_type: 1
      name: "stage4d.rebnconv3d.conv_s1.bias"
  }
  initializer {
      dims: 16
      dims: 32
      dims: 3
      dims: 3
      data_type: 1
      name: "stage4d.rebnconv3d.conv_s1.weight"
  }
  initializer {
      dims: 16
      data_type: 1
      name: "stage4d.rebnconv4.bn_s1.bias"
  }
  initializer {
      dims: 16
      data_type: 1
      name: "stage4d.rebnconv4.bn_s1.running_mean"
  }
  initializer {
      dims: 16
      data_type: 1
      name: "stage4d.rebnconv4.bn_s1.running_var"
  }
  initializer {
      dims: 16
      data_type: 1
      name: "stage4d.rebnconv4.bn_s1.weight"
  }
  initializer {
      dims: 16
      data_type: 1
      name: "stage4d.rebnconv4.conv_s1.bias"
  }
  initializer {
      dims: 16
      dims: 16
      dims: 3
      dims: 3
      data_type: 1
      name: "stage4d.rebnconv4.conv_s1.weight"
  }
  initializer {
      dims: 64
      data_type: 1
      name: "stage4d.rebnconvin.bn_s1.bias"
  }
  initializer {
      dims: 64
      data_type: 1
      name: "stage4d.rebnconvin.bn_s1.running_mean"
  }
  initializer {
      dims: 64
      data_type: 1
      name: "stage4d.rebnconvin.bn_s1.running_var"
  }
  initializer {
      dims: 64
      data_type: 1
      name: "stage4d.rebnconvin.bn_s1.weight"
  }
  initializer {
      dims: 64
      data_type: 1
      name: "stage4d.rebnconvin.conv_s1.bias"
  }
  initializer {
      dims: 64
      dims: 128
      dims: 3
      dims: 3
      data_type: 1
      name: "stage4d.rebnconvin.conv_s1.weight"
  }
  initializer {
      dims: 16
      data_type: 1
      name: "stage5.rebnconv1.bn_s1.bias"
  }
  initializer {
      dims: 16
      data_type: 1
      name: "stage5.rebnconv1.bn_s1.running_mean"
  }
  initializer {
      dims: 16
      data_type: 1
      name: "stage5.rebnconv1.bn_s1.running_var"
  }
  initializer {
      dims: 16
      data_type: 1
      name: "stage5.rebnconv1.bn_s1.weight"
  }
  initializer {
      dims: 16
      data_type: 1
      name: "stage5.rebnconv1.conv_s1.bias"
  }
  initializer {
      dims: 16
      dims: 64
      dims: 3
      dims: 3
      data_type: 1
      name: "stage5.rebnconv1.conv_s1.weight"
  }
  initializer {
      dims: 64
      data_type: 1
      name: "stage5.rebnconv1d.bn_s1.bias"
  }
  initializer {
      dims: 64
      data_type: 1
      name: "stage5.rebnconv1d.bn_s1.running_mean"
  }
  initializer {
      dims: 64
      data_type: 1
      name: "stage5.rebnconv1d.bn_s1.running_var"
  }
  initializer {
      dims: 64
      data_type: 1
      name: "stage5.rebnconv1d.bn_s1.weight"
  }
  initializer {
      dims: 64
      data_type: 1
      name: "stage5.rebnconv1d.conv_s1.bias"
  }
  initializer {
      dims: 64
      dims: 32
      dims: 3
      dims: 3
      data_type: 1
      name: "stage5.rebnconv1d.conv_s1.weight"
  }
  initializer {
      dims: 16
      data_type: 1
      name: "stage5.rebnconv2.bn_s1.bias"
  }
  initializer {
      dims: 16
      data_type: 1
      name: "stage5.rebnconv2.bn_s1.running_mean"
  }
  initializer {
      dims: 16
      data_type: 1
      name: "stage5.rebnconv2.bn_s1.running_var"
  }
  initializer {
      dims: 16
      data_type: 1
      name: "stage5.rebnconv2.bn_s1.weight"
  }
  initializer {
      dims: 16
      data_type: 1
      name: "stage5.rebnconv2.conv_s1.bias"
  }
  initializer {
      dims: 16
      dims: 16
      dims: 3
      dims: 3
      data_type: 1
      name: "stage5.rebnconv2.conv_s1.weight"
  }
  initializer {
      dims: 16
      data_type: 1
      name: "stage5.rebnconv2d.bn_s1.bias"
  }
  initializer {
      dims: 16
      data_type: 1
      name: "stage5.rebnconv2d.bn_s1.running_mean"
  }
  initializer {
      dims: 16
      data_type: 1
      name: "stage5.rebnconv2d.bn_s1.running_var"
  }
  initializer {
      dims: 16
      data_type: 1
      name: "stage5.rebnconv2d.bn_s1.weight"
  }
  initializer {
      dims: 16
      data_type: 1
      name: "stage5.rebnconv2d.conv_s1.bias"
  }
  initializer {
      dims: 16
      dims: 32
      dims: 3
      dims: 3
      data_type: 1
      name: "stage5.rebnconv2d.conv_s1.weight"
  }
  initializer {
      dims: 16
      data_type: 1
      name: "stage5.rebnconv3.bn_s1.bias"
  }
  initializer {
      dims: 16
      data_type: 1
      name: "stage5.rebnconv3.bn_s1.running_mean"
  }
  initializer {
      dims: 16
      data_type: 1
      name: "stage5.rebnconv3.bn_s1.running_var"
  }
  initializer {
      dims: 16
      data_type: 1
      name: "stage5.rebnconv3.bn_s1.weight"
  }
  initializer {
      dims: 16
      data_type: 1
      name: "stage5.rebnconv3.conv_s1.bias"
  }
  initializer {
      dims: 16
      dims: 16
      dims: 3
      dims: 3
      data_type: 1
      name: "stage5.rebnconv3.conv_s1.weight"
  }
  initializer {
      dims: 16
      data_type: 1
      name: "stage5.rebnconv3d.bn_s1.bias"
  }
  initializer {
      dims: 16
      data_type: 1
      name: "stage5.rebnconv3d.bn_s1.running_mean"
  }
  initializer {
      dims: 16
      data_type: 1
      name: "stage5.rebnconv3d.bn_s1.running_var"
  }
  initializer {
      dims: 16
      data_type: 1
      name: "stage5.rebnconv3d.bn_s1.weight"
  }
  initializer {
      dims: 16
      data_type: 1
      name: "stage5.rebnconv3d.conv_s1.bias"
  }
  initializer {
      dims: 16
      dims: 32
      dims: 3
      dims: 3
      data_type: 1
      name: "stage5.rebnconv3d.conv_s1.weight"
  }
  initializer {
      dims: 16
      data_type: 1
      name: "stage5.rebnconv4.bn_s1.bias"
  }
  initializer {
      dims: 16
      data_type: 1
      name: "stage5.rebnconv4.bn_s1.running_mean"
  }
  initializer {
      dims: 16
      data_type: 1
      name: "stage5.rebnconv4.bn_s1.running_var"
  }
  initializer {
      dims: 16
      data_type: 1
      name: "stage5.rebnconv4.bn_s1.weight"
  }
  initializer {
      dims: 16
      data_type: 1
      name: "stage5.rebnconv4.conv_s1.bias"
  }
  initializer {
      dims: 16
      dims: 16
      dims: 3
      dims: 3
      data_type: 1
      name: "stage5.rebnconv4.conv_s1.weight"
  }
  initializer {
      dims: 64
      data_type: 1
      name: "stage5.rebnconvin.bn_s1.bias"
  }
  initializer {
      dims: 64
      data_type: 1
      name: "stage5.rebnconvin.bn_s1.running_mean"
  }
  initializer {
      dims: 64
      data_type: 1
      name: "stage5.rebnconvin.bn_s1.running_var"
  }
  initializer {
      dims: 64
      data_type: 1
      name: "stage5.rebnconvin.bn_s1.weight"
  }
  initializer {
      dims: 64
      data_type: 1
      name: "stage5.rebnconvin.conv_s1.bias"
  }
  initializer {
      dims: 64
      dims: 64
      dims: 3
      dims: 3
      data_type: 1
      name: "stage5.rebnconvin.conv_s1.weight"
  }
  initializer {
      dims: 16
      data_type: 1
      name: "stage5d.rebnconv1.bn_s1.bias"
  }
  initializer {
      dims: 16
      data_type: 1
      name: "stage5d.rebnconv1.bn_s1.running_mean"
  }
  initializer {
      dims: 16
      data_type: 1
      name: "stage5d.rebnconv1.bn_s1.running_var"
  }
  initializer {
      dims: 16
      data_type: 1
      name: "stage5d.rebnconv1.bn_s1.weight"
  }
  initializer {
      dims: 16
      data_type: 1
      name: "stage5d.rebnconv1.conv_s1.bias"
  }
  initializer {
      dims: 16
      dims: 64
      dims: 3
      dims: 3
      data_type: 1
      name: "stage5d.rebnconv1.conv_s1.weight"
  }
  initializer {
      dims: 64
      data_type: 1
      name: "stage5d.rebnconv1d.bn_s1.bias"
  }
  initializer {
      dims: 64
      data_type: 1
      name: "stage5d.rebnconv1d.bn_s1.running_mean"
  }
  initializer {
      dims: 64
      data_type: 1
      name: "stage5d.rebnconv1d.bn_s1.running_var"
  }
  initializer {
      dims: 64
      data_type: 1
      name: "stage5d.rebnconv1d.bn_s1.weight"
  }
  initializer {
      dims: 64
      data_type: 1
      name: "stage5d.rebnconv1d.conv_s1.bias"
  }
  initializer {
      dims: 64
      dims: 32
      dims: 3
      dims: 3
      data_type: 1
      name: "stage5d.rebnconv1d.conv_s1.weight"
  }
  initializer {
      dims: 16
      data_type: 1
      name: "stage5d.rebnconv2.bn_s1.bias"
  }
  initializer {
      dims: 16
      data_type: 1
      name: "stage5d.rebnconv2.bn_s1.running_mean"
  }
  initializer {
      dims: 16
      data_type: 1
      name: "stage5d.rebnconv2.bn_s1.running_var"
  }
  initializer {
      dims: 16
      data_type: 1
      name: "stage5d.rebnconv2.bn_s1.weight"
  }
  initializer {
      dims: 16
      data_type: 1
      name: "stage5d.rebnconv2.conv_s1.bias"
  }
  initializer {
      dims: 16
      dims: 16
      dims: 3
      dims: 3
      data_type: 1
      name: "stage5d.rebnconv2.conv_s1.weight"
  }
  initializer {
      dims: 16
      data_type: 1
      name: "stage5d.rebnconv2d.bn_s1.bias"
  }
  initializer {
      dims: 16
      data_type: 1
      name: "stage5d.rebnconv2d.bn_s1.running_mean"
  }
  initializer {
      dims: 16
      data_type: 1
      name: "stage5d.rebnconv2d.bn_s1.running_var"
  }
  initializer {
      dims: 16
      data_type: 1
      name: "stage5d.rebnconv2d.bn_s1.weight"
  }
  initializer {
      dims: 16
      data_type: 1
      name: "stage5d.rebnconv2d.conv_s1.bias"
  }
  initializer {
      dims: 16
      dims: 32
      dims: 3
      dims: 3
      data_type: 1
      name: "stage5d.rebnconv2d.conv_s1.weight"
  }
  initializer {
      dims: 16
      data_type: 1
      name: "stage5d.rebnconv3.bn_s1.bias"
  }
  initializer {
      dims: 16
      data_type: 1
      name: "stage5d.rebnconv3.bn_s1.running_mean"
  }
  initializer {
      dims: 16
      data_type: 1
      name: "stage5d.rebnconv3.bn_s1.running_var"
  }
  initializer {
      dims: 16
      data_type: 1
      name: "stage5d.rebnconv3.bn_s1.weight"
  }
  initializer {
      dims: 16
      data_type: 1
      name: "stage5d.rebnconv3.conv_s1.bias"
  }
  initializer {
      dims: 16
      dims: 16
      dims: 3
      dims: 3
      data_type: 1
      name: "stage5d.rebnconv3.conv_s1.weight"
  }
  initializer {
      dims: 16
      data_type: 1
      name: "stage5d.rebnconv3d.bn_s1.bias"
  }
  initializer {
      dims: 16
      data_type: 1
      name: "stage5d.rebnconv3d.bn_s1.running_mean"
  }
  initializer {
      dims: 16
      data_type: 1
      name: "stage5d.rebnconv3d.bn_s1.running_var"
  }
  initializer {
      dims: 16
      data_type: 1
      name: "stage5d.rebnconv3d.bn_s1.weight"
  }
  initializer {
      dims: 16
      data_type: 1
      name: "stage5d.rebnconv3d.conv_s1.bias"
  }
  initializer {
      dims: 16
      dims: 32
      dims: 3
      dims: 3
      data_type: 1
      name: "stage5d.rebnconv3d.conv_s1.weight"
  }
  initializer {
      dims: 16
      data_type: 1
      name: "stage5d.rebnconv4.bn_s1.bias"
  }
  initializer {
      dims: 16
      data_type: 1
      name: "stage5d.rebnconv4.bn_s1.running_mean"
  }
  initializer {
      dims: 16
      data_type: 1
      name: "stage5d.rebnconv4.bn_s1.running_var"
  }
  initializer {
      dims: 16
      data_type: 1
      name: "stage5d.rebnconv4.bn_s1.weight"
  }
  initializer {
      dims: 16
      data_type: 1
      name: "stage5d.rebnconv4.conv_s1.bias"
  }
  initializer {
      dims: 16
      dims: 16
      dims: 3
      dims: 3
      data_type: 1
      name: "stage5d.rebnconv4.conv_s1.weight"
  }
  initializer {
      dims: 64
      data_type: 1
      name: "stage5d.rebnconvin.bn_s1.bias"
  }
  initializer {
      dims: 64
      data_type: 1
      name: "stage5d.rebnconvin.bn_s1.running_mean"
  }
  initializer {
      dims: 64
      data_type: 1
      name: "stage5d.rebnconvin.bn_s1.running_var"
  }
  initializer {
      dims: 64
      data_type: 1
      name: "stage5d.rebnconvin.bn_s1.weight"
  }
  initializer {
      dims: 64
      data_type: 1
      name: "stage5d.rebnconvin.conv_s1.bias"
  }
  initializer {
      dims: 64
      dims: 128
      dims: 3
      dims: 3
      data_type: 1
      name: "stage5d.rebnconvin.conv_s1.weight"
  }
  initializer {
      dims: 16
      data_type: 1
      name: "stage6.rebnconv1.bn_s1.bias"
  }
  initializer {
      dims: 16
      data_type: 1
      name: "stage6.rebnconv1.bn_s1.running_mean"
  }
  initializer {
      dims: 16
      data_type: 1
      name: "stage6.rebnconv1.bn_s1.running_var"
  }
  initializer {
      dims: 16
      data_type: 1
      name: "stage6.rebnconv1.bn_s1.weight"
  }
  initializer {
      dims: 16
      data_type: 1
      name: "stage6.rebnconv1.conv_s1.bias"
  }
  initializer {
      dims: 16
      dims: 64
      dims: 3
      dims: 3
      data_type: 1
      name: "stage6.rebnconv1.conv_s1.weight"
  }
  initializer {
      dims: 64
      data_type: 1
      name: "stage6.rebnconv1d.bn_s1.bias"
  }
  initializer {
      dims: 64
      data_type: 1
      name: "stage6.rebnconv1d.bn_s1.running_mean"
  }
  initializer {
      dims: 64
      data_type: 1
      name: "stage6.rebnconv1d.bn_s1.running_var"
  }
  initializer {
      dims: 64
      data_type: 1
      name: "stage6.rebnconv1d.bn_s1.weight"
  }
  initializer {
      dims: 64
      data_type: 1
      name: "stage6.rebnconv1d.conv_s1.bias"
  }
  initializer {
      dims: 64
      dims: 32
      dims: 3
      dims: 3
      data_type: 1
      name: "stage6.rebnconv1d.conv_s1.weight"
  }
  initializer {
      dims: 16
      data_type: 1
      name: "stage6.rebnconv2.bn_s1.bias"
  }
  initializer {
      dims: 16
      data_type: 1
      name: "stage6.rebnconv2.bn_s1.running_mean"
  }
  initializer {
      dims: 16
      data_type: 1
      name: "stage6.rebnconv2.bn_s1.running_var"
  }
  initializer {
      dims: 16
      data_type: 1
      name: "stage6.rebnconv2.bn_s1.weight"
  }
  initializer {
      dims: 16
      data_type: 1
      name: "stage6.rebnconv2.conv_s1.bias"
  }
  initializer {
      dims: 16
      dims: 16
      dims: 3
      dims: 3
      data_type: 1
      name: "stage6.rebnconv2.conv_s1.weight"
  }
  initializer {
      dims: 16
      data_type: 1
      name: "stage6.rebnconv2d.bn_s1.bias"
  }
  initializer {
      dims: 16
      data_type: 1
      name: "stage6.rebnconv2d.bn_s1.running_mean"
  }
  initializer {
      dims: 16
      data_type: 1
      name: "stage6.rebnconv2d.bn_s1.running_var"
  }
  initializer {
      dims: 16
      data_type: 1
      name: "stage6.rebnconv2d.bn_s1.weight"
  }
  initializer {
      dims: 16
      data_type: 1
      name: "stage6.rebnconv2d.conv_s1.bias"
  }
  initializer {
      dims: 16
      dims: 32
      dims: 3
      dims: 3
      data_type: 1
      name: "stage6.rebnconv2d.conv_s1.weight"
  }
  initializer {
      dims: 16
      data_type: 1
      name: "stage6.rebnconv3.bn_s1.bias"
  }
  initializer {
      dims: 16
      data_type: 1
      name: "stage6.rebnconv3.bn_s1.running_mean"
  }
  initializer {
      dims: 16
      data_type: 1
      name: "stage6.rebnconv3.bn_s1.running_var"
  }
  initializer {
      dims: 16
      data_type: 1
      name: "stage6.rebnconv3.bn_s1.weight"
  }
  initializer {
      dims: 16
      data_type: 1
      name: "stage6.rebnconv3.conv_s1.bias"
  }
  initializer {
      dims: 16
      dims: 16
      dims: 3
      dims: 3
      data_type: 1
      name: "stage6.rebnconv3.conv_s1.weight"
  }
  initializer {
      dims: 16
      data_type: 1
      name: "stage6.rebnconv3d.bn_s1.bias"
  }
  initializer {
      dims: 16
      data_type: 1
      name: "stage6.rebnconv3d.bn_s1.running_mean"
  }
  initializer {
      dims: 16
      data_type: 1
      name: "stage6.rebnconv3d.bn_s1.running_var"
  }
  initializer {
      dims: 16
      data_type: 1
      name: "stage6.rebnconv3d.bn_s1.weight"
  }
  initializer {
      dims: 16
      data_type: 1
      name: "stage6.rebnconv3d.conv_s1.bias"
  }
  initializer {
      dims: 16
      dims: 32
      dims: 3
      dims: 3
      data_type: 1
      name: "stage6.rebnconv3d.conv_s1.weight"
  }
  initializer {
      dims: 16
      data_type: 1
      name: "stage6.rebnconv4.bn_s1.bias"
  }
  initializer {
      dims: 16
      data_type: 1
      name: "stage6.rebnconv4.bn_s1.running_mean"
  }
  initializer {
      dims: 16
      data_type: 1
      name: "stage6.rebnconv4.bn_s1.running_var"
  }
  initializer {
      dims: 16
      data_type: 1
      name: "stage6.rebnconv4.bn_s1.weight"
  }
  initializer {
      dims: 16
      data_type: 1
      name: "stage6.rebnconv4.conv_s1.bias"
  }
  initializer {
      dims: 16
      dims: 16
      dims: 3
      dims: 3
      data_type: 1
      name: "stage6.rebnconv4.conv_s1.weight"
  }
  initializer {
      dims: 64
      data_type: 1
      name: "stage6.rebnconvin.bn_s1.bias"
  }
  initializer {
      dims: 64
      data_type: 1
      name: "stage6.rebnconvin.bn_s1.running_mean"
  }
  initializer {
      dims: 64
      data_type: 1
      name: "stage6.rebnconvin.bn_s1.running_var"
  }
  initializer {
      dims: 64
      data_type: 1
      name: "stage6.rebnconvin.bn_s1.weight"
  }
  initializer {
      dims: 64
      data_type: 1
      name: "stage6.rebnconvin.conv_s1.bias"
  }
  initializer {
      dims: 64
      dims: 64
      dims: 3
      dims: 3
      data_type: 1
      name: "stage6.rebnconvin.conv_s1.weight"
  }
  input {
    name: "input.1"
    type {
      tensor_type {
        elem_type: 1
        shape {
          dim {
            dim_value: 1
          }
          dim {
            dim_value: 3
          }
          dim {
            dim_value: 320
          }
          dim {
            dim_value: 320
          }
        }
      }
    }
  }
  output {
    name: "1997"
    type {
      tensor_type {
        elem_type: 1
        shape {
          dim {
            dim_value: 1
          }
          dim {
            dim_value: 1
          }
          dim {
            dim_value: 320
          }
          dim {
            dim_value: 320
          }
        }
      }
    }
  }
  output {
    name: "1998"
    type {
      tensor_type {
        elem_type: 1
        shape {
          dim {
            dim_value: 1
          }
          dim {
            dim_value: 1
          }
          dim {
            dim_value: 320
          }
          dim {
            dim_value: 320
          }
        }
      }
    }
  }
  output {
    name: "1999"
    type {
      tensor_type {
        elem_type: 1
        shape {
          dim {
            dim_value: 1
          }
          dim {
            dim_value: 1
          }
          dim {
            dim_value: 320
          }
          dim {
            dim_value: 320
          }
        }
      }
    }
  }
  output {
    name: "2000"
    type {
      tensor_type {
        elem_type: 1
        shape {
          dim {
            dim_value: 1
          }
          dim {
            dim_value: 1
          }
          dim {
            dim_value: 320
          }
          dim {
            dim_value: 320
          }
        }
      }
    }
  }
  output {
    name: "2001"
    type {
      tensor_type {
        elem_type: 1
        shape {
          dim {
            dim_value: 1
          }
          dim {
            dim_value: 1
          }
          dim {
            dim_value: 320
          }
          dim {
            dim_value: 320
          }
        }
      }
    }
  }
  output {
    name: "2002"
    type {
      tensor_type {
        elem_type: 1
        shape {
          dim {
            dim_value: 1
          }
          dim {
            dim_value: 1
          }
          dim {
            dim_value: 320
          }
          dim {
            dim_value: 320
          }
        }
      }
    }
  }
  output {
    name: "2003"
    type {
      tensor_type {
        elem_type: 1
        shape {
          dim {
            dim_value: 1
          }
          dim {
            dim_value: 1
          }
          dim {
            dim_value: 320
          }
          dim {
            dim_value: 320
          }
        }
      }
    }
  }
}
opset_import {
  version: 10
}
